Sine-Gordon/Best_SG_8.4e-4.pt (torch, 35589 bytes, 9 tensors)

layer.0.weight f4 [50, 2]
00000000: 90c1 e93d e305 9d3e c2e9 76be 6a94 413e
00000010: 5cef 1b3f f876 27bf 83f6 cfbe 837e 12bf
00000020: 5c1e 21be cc14 72be 8d2a f8be 272e 0d3f
00000030: c8a2 16bf 2e92 8c3d 86a7 b53e 0d89 cc3e
00000040: 62c4 0f3f a3bf ea3e d948 543d 1f4e 08bf
00000050: 5a69 173f ec5f 5dbd 604e 983e 0f5b 93bd
00000060: 7c94 8dbe b9b4 0cbb 87de b73e de68 26be
00000070: 355d 5cbd 0146 733e 1224 0ebe e434 253d
00000080: 9ac0 d83e 3889 12be 58ba e7be 1528 b93e
00000090: bafc 2f3f 963f 153f 5e6f 43be 878b 6e3e
000000a0: cb4f 1cbf 3483 05bf 7b54 233f 3b1b f8bd
000000b0: 0bed b8be 3800 06bf 6903 2dbe 7a32 cdbe
000000c0: 5f48 2c3f f59d 91be 3aca 313f 4246 153f
000000d0: 179d b3be 7a9d ffbe 8221 b33e 77a3 c0be
000000e0: 8734 253d 0ec4 0abf 4f82 dcbe 5225 b93e
000000f0: bac2 97be 7f8c d0bd eaf6 da3e 55d4 9f3e
00000100: 782c 78bd 045c c73e 3b59 b53d 3ce5 a73e
00000110: 3132 c73e 92c8 133f f9e5 763e d27b 12bb
00000120: 18bc 48be bb0c 33bf 4298 45be a607 163f
00000130: b9f6 ccbc f46f bc3e f1ef 52be e155 c43e
00000140: 1449 b3be baa4 63be e855 29bf 13c8 bd3e
00000150: f2fe 32bf 05e7 86be f5d6 cdbd 99a8 053f
00000160: 2e6c 2c3f 9407 9abe 4f68 e13e eef2 0ebf
00000170: 88aa e73e e4d6 debe 1bd5 3d3e 11de 4ebe
00000180: 4a20 2bbf 55fe 683e 8bb0 b6be 7f53 09bf
0.11413872 0.30668554 -0.24112609 0.18904272 0.6091211 -0.65415907 -0.4061776 -0.5722429
-0.15734237 -0.23640746 -0.48469964 0.5514855 -0.58842134 0.06863819 0.35479373 0.3994831
0.5615903 0.45849332 0.051827285 -0.53244203 0.5914513 -0.054046556 0.29747295 -0.071951024
-0.27652347 -0.0021470024 0.35911962 -0.16250941 -0.053799827 0.23757173 -0.13880947 0.040333644
0.42334443 -0.14310157 -0.45259356 0.36163393 0.68745005 0.5830015 -0.19085452 0.23295413
-0.61059254 -0.52153325 0.6380078 -0.12114569 -0.3611835 -0.52344084 -0.16895832 -0.40077573
0.6729793 -0.28440824 0.694492 0.5831033 -0.35080788 -0.49924833 0.34986502 -0.37624714
0.040333297 -0.54205406 -0.43068168 0.36161286 -0.29640752 -0.101830475 0.42766505 0.31216684
-0.060589284 0.3893739 0.0885491 0.3279208 0.3890548 0.5772792 0.24111165 -0.0022351635
-0.19603002 -0.699413 -0.19296363 0.5860542 -0.02501999 0.36804163 -0.20599343 0.3834677
-0.35016692 -0.22230807 -0.6614671 0.37066707 -0.69920266 -0.2634813 -0.100507654 0.52210385
0.6735257 -0.30083907 0.44024894 -0.5583943 0.45247293 -0.43523324 0.18538325 -0.20201899
-0.66846144 0.2275327 -0.35681567 -0.5364303

layer.0.bias f4 [50]
00000000: 7608 dd3e a3df 413e 5f9e 073f fcd0 2fbf
00000010: e08d de3e 1431 6c3e 2f7a 01bf ee8c c0be
00000020: 3933 573d 458f 69be 6213 013f 7a33 873e
00000030: abf7 863e 957d ed3e c846 b13d 36ee dbbe
00000040: c7de a8be 2f30 6e3e 882a 32bf df4b 203f
00000050: 5de1 32be 45cf 0d3f 531b 94be 7a2d 0cbe
00000060: f241 933e 5cdb 31be 712d a9bc efb7 e3be
00000070: 948d b03e 6e98 b03e b616 a0be cbd7 05bf
00000080: 4761 5bbe 363a 353e 4bfe a8be 919c a33e
00000090: 69b0 83be 645b 3c3e e8b8 75be 3b74 173e
000000a0: 1ea6 0fbf 5730 02be 738a f43c 9999 10bf
000000b0: 0f38 acbd 3309 17bc 20ad ea3e 0c80 85be
000000c0: d91c f8bd 2ec0 efbe
0.43170518 0.18932967 0.5297603 -0.6867826 0.43467617 0.23065597 -0.5057706 -0.3760752
0.052539084 -0.22808559 0.504202 0.2640646 0.2636083 0.46384874 0.086560786 -0.42955178
-0.32982466 0.23260568 -0.6959615 0.6261577 -0.17468782 0.55394393 -0.28927097 -0.13689223
0.2876125 -0.17368835 -0.020651551 -0.44476268 0.34483016 0.34491295 -0.31267327 -0.522824
-0.21423827 0.17697987 -0.3300651 0.31955388 -0.25720528 0.18394238 -0.23996317 0.14790432
-0.5611285 -0.12713753 0.029851174 -0.5648437 -0.0840913 -0.009218502 0.4583521 -0.26074255
-0.12114877 -0.4682631

layer.2.weight f4 [50, 50]
00000000: 30b9 5b3d ab52 fbbd 413e 00be ad8e 813d
00000010: d764 c23d 40fe c7bd fe00 493d 0187 ad3d
00000020: c16c 0fbe 15bc 30bd 9299 85bd 445b fdbd
00000030: 9871 35bd 8e60 7a3d 22f0 1cbd 6d29 5fbc
00000040: 9e41 acbd 3ebf 9dbd 6d7d 813c 77cb e03d
00000050: f0c5 4dbc e32e 143b 5e8d 07be d950 f3bd
00000060: 43a3 ccbd 2772 d5bd fe06 493d 6239 93bd
00000070: 0547 163d 7939 373c 9f26 91bd 9639 973d
00000080: cb16 a13d 6937 85bd d2df 09bc c574 a7bd
00000090: 02b8 2d3d 907e 483d 7d6a 093e 6d9b ae3d
000000a0: 6ef5 b73d 8cb4 743d a6dc 83bd 39c9 76bd
000000b0: 652e 0dbd 8b35 413c aa57 db3d a906 7bbd
000000c0: 5436 8b3d 06d2 9a3d cf2f 863c 7fdc 0fbe
000000d0: 2a11 003e 9e67 813b 8189 2ebd 92bb 033e
000000e0: b15e 10be 1f53 0e3d c36a 30bc dbfd 38bd
000000f0: 3180 03be 1966 c9bb 4c01 69bd 3a8d 95bd
00000100: d4a7 6bbd 66e1 ea3c 60cd e2bc 28db f93d
00000110: c95d db3c fefc 7cbd 0133 063d 09a3 0c3e
00000120: cb9d ebbc fb88 0dbe 2925 7e3d ea09 a2bd
00000130: edf3 823d d7fe aeba 7315 dbbd 2a94 013e
00000140: 1ecd dc3d c982 5fbd 1e82 f2bd f927 343c
00000150: 8d22 03be 2e33 313d 521c e83c 6084 4c3d
00000160: 99be 1bba 143d 003d b6af 003c 7722 c9bd
00000170: 62ed eebd 33dd 663c 8a60 0fbe cde3 b5bd
00000180: e213 043d eb34 10be 6f68 38bd 9c8d da3c
00000190: 10d1 29bd 4f82 4bbc e0e3 4dbd 623b 3dbd
000001a0: 9019 dabd 01c5 babc adef 27bd a29a 31bd
000001b0: d49f 923d 8cfc bb3d e2f0 98bd 4509 abbd
000001c0: 84a5 813d 214b 8d3d f10a 89bc 4e1b 133e
000001d0: c96c 0bbd 34e6 d1bd 9113 50bd 6654 68bd
000001e0: f15f b93d b59a 7dbc a7fc 043e 63e0 abbd
000001f0: 4a78 09be 9726 a3bd 67a4 1dbd 3c7a 9d3d
00000200: 1249 50bd efb9 bdbd 61f8 6fbd aae9 b4bd
00000210: 8ba4 d33d c961 dcbd cab3 d8bd e235 11be
00000220: 6062 033e 7e55 9c3c 406d b43d ddba 893d
00000230: 5b78 2ebd 5076 dcba ea1e 9fbc 6a9a 8a3d
00000240: df19 04bd a9fe 803c 5507 d63d 65f5 b4bd
00000250: e5d7 023e 1813 a03d 0f9c b23d 4765 07be
00000260: a9d1 d2bc 4419 91bd 3ed4 e3bd 47e4 233d
00000270: 96df b83d 03df b63d 76f5 643c 6b36 dfbc
00000280: 17a3 74bd 9e25 883d 8930 bfbd 8e09 e3bd
00000290: b78c 663c 80d3 813c 78b9 62bc 5e3e e2bc
000002a0: d70e 9cbd eaa1 8e3d 2461 cfbd 4baf f53d
000002b0: fa64 0cbd 707c a4bd 1131 91bd 5658 62bd
000002c0: 00f7 9e3d eb61 e93d 9a9e 50bd 1866 14bd
000002d0: 2cad a23d 9b5c c13d 83d7 cb3d 29d0 043e
000002e0: e679 5dbd ff8b 8bbb 1b38 99bd b7b4 dc3d
000002f0: e297 933d b3fb 86bd f5fb 84bd b509 223c
00000300: cf86 05bd 573e 08be 8707 89bd ea7d d6bb
00000310: 85a2 0d3d 30a9 eabd 07e5 ecbd a8ae b23d
00000320: f560 503c c98f 1e3d 81b8 7fbd fae6 1a3c
00000330: d615 c2bd aae2 2cbd 59a3 9cbc 0d23 43bd
00000340: fd6f a13d b6a7 1f3c 056f 71bd ea6f 8cbd
00000350: 23df 9a3d 2511 06be c48e a0bd 1252 1a3c
00000360: 4151 ba3d 4fb0 903b ffbd 9aba 8369 933d
00000370: 0758 6c3d 0a90 cd3d efb3 09be f539 40bd
00000380: c3de 813d c875 243d d9c0 60bd 52f1 b5bd
00000390: d1bb 8dbd 8744 64bc 12a9 b53d 9e59 4dbd
000003a0: 55fd d73c d6b8 94bd 55dd 31bd b6ed 3a3d
000003b0: 9af3 bb3d 0f20 6dbd 9e1d e43d 739b ea3d
000003c0: d4b4 96bd f6fe 09be 5a63 523d 0fef a5bd
000003d0: 4b40 4dbd b500 c0bb f77b eb3d 7e81 663d
000003e0: b09e 8a3d 783c d6bd 157b 533b a548 fd3d
000003f0: 55f8 14bd 408f 1bbe c4ea 27bd 28ad a5bd
0.053643405 -0.12271627 -0.12523748 0.06326041 0.0949189 -0.09765291 0.04907321 0.084730156
-0.1400633 -0.04314812 -0.06523432 -0.12370923 -0.044297785 0.061127238 -0.038314946 -0.0136207165
-0.08410953 -0.07702492 0.015806878 0.10976308 -0.012559399 0.0022610954 -0.13237521 -0.11880655
-0.09992077 -0.104221635 0.049078934 -0.07188679 0.036688823 0.011183136 -0.070874445 0.073840305
0.078656755 -0.06504709 -0.008415179 -0.08176569 0.04241181 0.048948824 0.13419528 0.08525739
0.08982359 0.059742495 -0.0643857 -0.060250495 -0.034468073 0.011792551 0.1071008 -0.06128565
0.06797472 0.0755959 0.016380219 -0.14048956 0.12506548 0.0039491197 -0.042611603 0.12864521
-0.14098622 0.03474724 -0.0107676415 -0.04516397 -0.1284187 -0.006146204 -0.056886002 -0.073023275
-0.0575331 0.028671931 -0.027685821 0.12200004 0.026778119 -0.06176471 0.032763485 0.13734068
-0.028761765 -0.13821785 0.062047157 -0.07912047 0.063941814 -0.0013351095 -0.106974505 0.12654176
0.107813105 -0.054568086 -0.11841224 0.010995858 -0.12806149 0.0432617 0.028333817 0.04993093
-0.0005941182 0.03130825 0.007854393 -0.09821027 -0.11666371 0.014090824 -0.1400167 -0.0888134
0.032245524 -0.14082687 -0.04502147 0.026678853 -0.041459143 -0.012421205 -0.050266147 -0.04619921
-0.10649407 -0.022799017 -0.041000057 -0.04336036 0.07159391 0.09179029 -0.0746782 -0.083513774
0.06330398 0.06899095 -0.01672885 0.14365885 -0.034039292 -0.10248986 -0.05079991 -0.056721114
0.090515025 -0.01547878 0.12987004 -0.08392408 -0.13424793 -0.07966345 -0.038486864 0.0768933
-0.050850935 -0.0926398 -0.058586482 -0.088336304 0.103341185 -0.107608385 -0.10581167 -0.14180711
0.12830496 0.019083735 0.088099 0.067250945 -0.04259525 -0.0016819928 -0.01942392 0.067677334
-0.032251235 0.015746431 0.10450617 -0.08835868 0.1277767 0.07816142 0.08721172 -0.13222228
-0.02573474 -0.07084897 -0.11124466 0.040012624 0.09027021 0.08929255 0.013974538 -0.027247628
-0.059725847 0.066478 -0.09335429 -0.11085807 0.014071635 0.015847921 -0.0138381645 -0.02761763
-0.07620018 0.069644764 -0.1012595 0.11996325 -0.034275986 -0.08031547 -0.07089437 -0.055260025
0.07761955 0.113956295 -0.050932504 -0.036230177 0.07943186 0.09441491 0.09953215 0.12970032
-0.05407133 -0.004258632 -0.074814044 0.10776656 0.07206704 -0.065909766 -0.064933695 0.00989001
-0.032599267 -0.13305031 -0.06690889 -0.006545772 0.03457882 -0.11458051 -0.11567121 0.08724719
0.012718429 0.038711343 -0.062431816 0.009454483 -0.09476821 -0.04220835 -0.019120859 -0.04764085
0.07882688 0.009744575 -0.058943767 -0.068572834 0.07562091 -0.13092478 -0.078397304 0.009418981
0.09097529 0.004415549 -0.0011805891 0.07197859 0.057701137 0.10037239 -0.13447545 -0.046930272
0.063413166 0.040151387 -0.054871414 -0.08883919 -0.06920589 -0.013932354 0.08870138 -0.050134294
0.026365915 -0.07261817 -0.04342397 0.045636855 0.09177323 -0.0578919 0.111384615 0.11455431
-0.07358709 -0.13476166 0.05136428 -0.081022374 -0.050110143 -0.0058594593 0.11498254 0.056275837
0.067685485 -0.10460752 0.0032269408 0.123673715 -0.03636964 -0.15191364 -0.040995374 -0.080896676

layer.2.bias f4 [50]
00000000: e6ed 3d3d 3985 c33d 7757 053e 5ea2 d83c
00000010: 1ea0 a1bd 6a66 103e 7e05 fb3b dd29 053e
00000020: eed6 fbbd 575d ef3d bbe4 c9bd bdc8 c1bb
00000030: b10a 5fbd be81 09bc e9f9 2e3d 1270 b83d
00000040: 5d2a 853d ba7a a6bd 39fa cfbc f2e6 8bbd
00000050: b767 ea3d 21a8 8abd a9e7 08be 01d2 83bd
00000060: 7508 b23d f467 43bd b11c 9bbc 806f 553d
00000070: 665d f0bd cc0d cabd 2523 a83d 2699 8f3d
00000080: 2172 463a da7e 8fbd 151f 203d 9c36 11be
00000090: 1ae2 89bd 3483 78bd e0ef 8ebd 8b80 4abd
000000a0: 79ac 943c 3ada 4a3d 8f6e ed3d 35a7 bd3d
000000b0: ac30 53bd ab20 97bd 77af e33d 520d ce3d
000000c0: fd75 be3d 40e2 803d
0.046369456 0.095468946 0.13021646 0.02644461 -0.07891868 0.14101568 0.007660567 0.13004251
-0.12296854 0.11687725 -0.0985808 -0.0059138224 -0.054453555 -0.008392749 0.0427188 0.09005751
0.06502221 -0.08128877 -0.02538787 -0.06831159 0.11445563 -0.06770349 -0.13369621 -0.064365394
0.08693019 -0.04770656 -0.01893458 0.052108288 -0.11736564 -0.09865913 0.08209828 0.070116326
0.0007570107 -0.07006617 0.039092142 -0.14180988 -0.067325786 -0.060672 -0.06979346 -0.049438994
0.018148648 0.049524523 0.11593353 0.09260408 -0.05156009 -0.07379278 0.11117452 0.100611344
0.09299848 0.06293154

layer.4.weight f4 [50, 50]
00000000: d0fb 4abd 8519 763d 852c 853c 1fe0 e7bd
00000010: ce94 16be 771f 113c d6c2 e5bd db89 c53c
00000020: 9b08 8dbd bbd5 00be 1571 0b3d 2ce5 b9bc
00000030: bc13 963c 4cc1 f83d a27a 1e3c edfd 013e
00000040: e091 c8bc a52c 093d 2196 103e a579 e3bc
00000050: e513 d43d 6b5f 1cbd 0abd e23d f2b7 db3d
00000060: 6766 6b3d 3c6a 2bbc fd32 eabd 2a9b 88bd
00000070: 2f1b dc3d 340e cdbd 8fb0 a33d 7eef 073c
00000080: 9ebe 013d c82b 9bbb 2a83 07bd bf2f a03b
00000090: 54cc 13be 0fb7 b2bd 1e30 44bc c4f9 bd3d
000000a0: 0961 f03d 8d15 d7bd de17 c83d 712e d33d
000000b0: e0c6 dc3c 5019 63bd f988 18be 916f 1cbe
000000c0: c9f3 63bd a5a6 00bc 5205 ddbd 8bc3 283c
000000d0: 5993 8d3d 8623 4d3c 69e7 7dbd 4ca3 5a3d
000000e0: 4abd 103e d5c1 343d aecf 11be c700 05be
000000f0: e94c 2f3d 9ac8 ef3d 4463 9a3d d91d e4bc
00000100: f8ea a0bc 0e40 1e3d 034e 5bbd 9cad 91bd
00000110: 9c0e 75bd 26ba 5d3d c563 db3d 6b70 f03d
00000120: 8e24 be3d 485f 9abd 819c 8c3c f1ca dc3d
00000130: f7dd f63d 08e0 a53c 7be3 0cbe 4cc5 a73d
00000140: 24e2 d7bc dffa 8cbc 21be 9dbd b522 02be
00000150: ed23 49bd 856e 003e cc66 dfbb bc7c 8e3d
00000160: 4433 cabd 42e2 c4bd 8e38 72bd 1ace b13d
00000170: 7db1 a7bc e3f7 e53d 44cc 6e3d a833 85bd
00000180: 916a 913d 1c2a c2bc 62a6 a2bd 6469 7b3d
00000190: 8c4a d03d 410a 1abe 5c3b 2ebb 332b 493d
000001a0: 25c6 6a3c 431a bbbd 6468 e9bd a136 e43d
000001b0: 8753 ac3d 3945 053c 2e39 183c 68fa 023a
000001c0: c594 353d 9749 e33c 9b64 e03d 95ed 043e
000001d0: 8ffa 38bc d913 e83d bf88 aa3b 621a 863c
000001e0: 5e07 dbbd 6568 f83d 8430 d83d d035 703d
000001f0: d0d5 bf3d 69c6 d4bc 5c71 93bd 69b0 7e3d
00000200: 3349 e2bd 932c 163e 00b7 e23d 5ef0 0d3d
00000210: 0776 0d3d f17d 03be f790 ee3c 9d17 c0bd
00000220: 3ba7 f53d 2076 10bc bd5c db3d 18ed aa3d
00000230: 3ba4 c93c 2655 7abb 3145 0bbe 3d3d 07be
00000240: 8a34 be3d d68f 1a3e 6f5e 343d 22ae 2a3d
00000250: 7e25 d1bc 653b 5cbb 3307 f43d d4f3 babc
00000260: 7616 8fbd 2610 003e c852 9bbd 7db7 753d
00000270: 9616 04be 09d6 25bd 134f cfbd 7d94 13bc
00000280: d80c 7e3d fa4e 07be 6e85 aabd 6af4 5bbc
00000290: a6d2 063e 55ac 42bd 45c2 2f3c 9528 fd3d
000002a0: 892f 8c3d cf0c f8bd d59c 693d 7c63 adbd
000002b0: 63ef 133e 404b db3d ece4 0cbe c093 c53c
000002c0: 5d20 043e 0a11 7cbd 532b 893d a820 2cbd
000002d0: 1c7a a13d 0dbd 483d ab59 e73c f1b9 fbbd
000002e0: 970e b33d c618 9a3d 64c0 19bd 1947 133e
000002f0: 86b9 013d 5aeb 09be 63b2 5bbc 0e6c 37bd
00000300: 0e57 cc3d ae2d 86bd c53e 833c b0a4 08bd
00000310: c43c b53d fc46 1e3d 57df 26bd 4430 ba3c
00000320: f586 9f3d fc70 e33d 3128 16bd 1bdd 963c
00000330: 5b81 14be 173d 18ba f27b 653d 4bde d5bb
00000340: 2317 c03d 2f9b 58bd ff9b 00be 1ea8 663d
00000350: e863 0a3c 074f 94bd 527e 22bd 0adc 9f3d
00000360: 708b e4bd 763b 023d f7ea 9c3d 73bf c83d
00000370: 2905 c3bd 6d88 8dbd e9d5 a4bd 5dd9 44bd
00000380: 35a4 a53d 3949 e0bc 4fd6 ae3d 9597 6b3d
00000390: cd1a c4bd 56da b93c bdef 9a3c 91a8 bb3d
000003a0: 398a c83d 191c 34bd b72f a63d 1da2 2ebd
000003b0: 757e 7ebc d324 153e 6811 54bd f908 05bc
000003c0: 0264 e5bd 81e5 053e d793 ca3d 54f5 52bd
000003d0: a394 18bd 474c cebc 3928 80bd 2589 033e
000003e0: 3cd7 dd3d 9c4c 7d3d 0d2e 8f3c b60b 26bd
000003f0: 77db c0bd fa7b eabd 901a 1e3e 3af4 6a3b
-0.049556553 0.06008293 0.01625658 -0.113220446 -0.14705202 0.008857599 -0.11218803 0.024113586
-0.06886407 -0.12581532 0.03404339 -0.022692285 0.018319957 0.121462435 0.009672793 0.12694521
-0.024483621 0.033489842 0.1411977 -0.027767966 0.10355357 -0.038176935 0.110712126 0.10728444
0.057470705 -0.01046234 -0.114355065 -0.0667022 0.10747372 -0.10012475 0.0799266 0.0082968455
0.031675927 -0.0047354437 -0.033084072 0.0048885043 -0.14433414 -0.08726322 -0.011974363 0.09276155
0.11737258 -0.10502157 0.09770177 0.10311592 0.0269503 -0.05544406 -0.14896001 -0.15276934
-0.055652414 -0.007852231 -0.107920304 0.010300527 0.0691287 0.0125206765 -0.061988268 0.05337839
0.14134708 0.044130165 -0.1423938 -0.12988578 0.042797957 0.117081836 0.07538465 -0.027846264
-0.019643292 0.038635306 -0.053541195 -0.071131915 -0.059828386 0.054132603 0.10712389 0.11740192
0.09284316 -0.07537705 0.01716447 0.107808955 0.12054055 0.020248428 -0.13758652 0.08191928
-0.02635295 -0.017209468 -0.0770228 -0.12708552 -0.049106527 0.1254216 -0.0068176743 0.06957385
-0.098730594 -0.09613468 -0.059135966 0.08681889 -0.020470375 0.11228921 0.05830027 -0.06503993
0.07100404 -0.02370172 -0.07941891 0.061379805 0.10170469 -0.15042974 -0.0026585674 0.049113464
0.014329468 -0.091358684 -0.11396864 0.11143232 0.08414369 0.00813418 0.009290976 0.000499642
0.04433133 0.027745051 0.10956689 0.12981255 -0.011290207 0.11331911 0.0052042897 0.016370002
-0.106947646 0.12129287 0.105561286 0.05864507 0.093669534 -0.025973516 -0.07199356 0.062179957
-0.11049118 0.14665441 0.11070061 0.03465306 0.034536388 -0.12841012 0.029121859 -0.09379504
0.11994787 -0.008817226 0.10711048 0.08346003 0.024614444 -0.0038197725 -0.13600613 -0.13206954
0.09287365 0.15093932 0.04403537 0.041669972 -0.025530573 -0.0033604738 0.11915436 -0.022821344
-0.06986706 0.1250616 -0.07584149 0.05998944 -0.12899241 -0.040487323 -0.10122504 -0.00900757
0.062023968 -0.13213721 -0.08326231 -0.013424972 0.13166294 -0.04752763 0.01072747 0.12361256
0.06845004 -0.12111818 0.057034332 -0.08466241 0.14446788 0.10707712 -0.13759202 0.024118304
0.1290297 -0.061539687 0.066977166 -0.04202333 0.07884619 0.049008418 0.028241 -0.12291325
0.08743017 0.075242564 -0.037536994 0.1438259 0.03167107 -0.13468686 -0.01340923 -0.044780783
0.09977542 -0.065516815 0.016021142 -0.033360183 0.08849481 0.038641915 -0.040740337 0.022728093
0.07789413 0.111055344 -0.036659423 0.018415978 -0.1450247 -0.0005807443 0.056026407 -0.0065267435
0.09379413 -0.05288237 -0.12559508 0.056312673 0.008446671 -0.07241636 -0.03967125 0.07805641
-0.11159408 0.031794988 0.076620035 0.09802141 -0.095224686 -0.06910787 -0.080486126 -0.048058856
0.08087961 -0.027378665 0.0853697 0.057517607 -0.09575424 0.022687119 0.018913144 0.09163011
0.09791989 -0.04397211 0.0811457 -0.042635072 -0.015533079 0.14564829 -0.051774412 -0.008119815
-0.112007156 0.1307583 0.098914795 -0.051503494 -0.037251126 -0.025182856 -0.06257672 0.12845285
0.10832068 0.06184064 0.017478013 -0.040538512 -0.094168596 -0.11449428 0.1543982 0.0035851137

layer.4.bias f4 [50]
00000000: 62bc 0abe d911 adbc 3413 cc3d 7747 10bd
00000010: 0151 edbc a31c 0a3d 86da 8dbd e55c 033e
00000020: 88e8 003e 4fa0 27bc 3eac b33d fad3 f7bd
00000030: e20c 823d 9d2e 0ebd b4a0 63bd 2055 633d
00000040: 4f9d 173d e162 023d a789 8d3d e880 fd3d
00000050: 37b1 d43d ab6e 51bd 2b15 b63d 57a0 abbd
00000060: 557a d6bc 26df dbbd 08e2 0dbe a774 d83d
00000070: c320 f6bd b014 ecbc f2d8 8e3b d5b1 56bc
00000080: fb9b 0a3d 2b77 62bd 74d6 0e3c b8a2 0b3e
00000090: 1fba dfbd 62ac 52bc f3b3 3cbd a0ce ecbd
000000a0: 9376 edbd d67f 66bd 6363 cbbd 9774 06be
000000b0: 0c4e fb3d f21b 5dbd 0467 d23c 8519 abbc
000000c0: e4ec 85bd 383c 8a3d
-0.13548425 -0.021126674 0.099646 -0.035224404 -0.02896929 0.033718716 -0.06926446 0.12828405
0.12588704 -0.010231092 0.08773087 -0.12100978 0.063501135 -0.034712423 -0.05557318 0.055501103
0.037015256 0.03183258 0.06911021 0.123781025 0.103853635 -0.05113093 0.08890756 -0.08380192
-0.02618138 -0.107359216 -0.13855755 0.10569125 -0.120179676 -0.028818458 0.004359358 -0.013103922
0.03384016 -0.05528943 0.008718122 0.13636291 -0.10924172 -0.012858482 -0.04607005 -0.11562848
-0.11594882 -0.056274258 -0.09931066 -0.13130413 0.12270746 -0.05398173 0.025683887 -0.020886192
-0.06539324 0.06749767

layer.6.weight f4 [50, 50]
00000000: 3569 0d3d a0d4 19be 03d7 59bc da41 88bc
00000010: ccc9 c83c 8121 5bbd 95fc 613c 63ed e8bc
00000020: f671 c33c e635 973d 00d4 d23d 420c ce3d
00000030: aed9 e33c fb43 6b3d 4fc3 2bbc 4162 0b3e
00000040: 357f e63b 1b1f c73d 6c75 ebbd 68d0 febd
00000050: 0576 fb3d 1467 7f3d 4de4 b6bd 1f6e 113d
00000060: 2d0b 96bd 0f08 7d3d 289b dbbd 88fe cebc
00000070: fc81 823c d642 ff3c 70f4 90bd 4273 17be
00000080: 89eb 4bbd cb01 1fbd 2ec7 f53d 36b2 fdbc
00000090: 133c f6b7 9c1d e4bc 026b a5bc 42f4 a2bd
000000a0: 3b3a 91bd 1695 d7bc a3a6 ff3d 1549 753d
000000b0: a84b 923d bc91 823d fb0e 393d 2545 0e3d
000000c0: b201 c13d d961 53bd 44ed 7e3c 0494 14bd
000000d0: 1cbe 013d 13b7 593d 3f1f 10be 8ae4 f7bd
000000e0: 9816 f9bd f3b5 e63d 9b0a a2bd 4700 f03d
000000f0: 75e9 933d 58cb fabd 1690 00be 4bbd c4bd
00000100: b906 e1bd f7c6 86bd 3e37 b9bd ba0e 023e
00000110: 61f4 fcbd c997 07be 052b db3c b5ca bc3d
00000120: b68e c33b 7a87 963d 08c1 b13c 8e82 07be
00000130: 76b2 0e3c bb63 0d3d 2e75 3abc 718a c53d
00000140: daa0 313d e8b2 103e ba92 7fbd 7065 c7bd
00000150: 458e 10be db70 2b3d 0aad 37bd b573 5b3d
00000160: ecbd 803d a014 193e 6c33 123e c495 f3bd
00000170: 69c6 15be 01ef 693d f6f5 fd3c 69fa e53d
00000180: 7ad0 df3d 606b 9a3c 4e14 41bd f866 9e3d
00000190: ab01 8fbc 30ab b83d 510e e43d 6627 06be
000001a0: d0a7 a5bd cd60 803c 6d8e 07be 114b c2bd
000001b0: e4f4 02be a9e6 c6bd ab01 07be f7b2 33bd
000001c0: e248 df3c b46e 5a3d eca0 9dbd b262 d7bd
000001d0: 808a 8fbd 0d1e 7b3d 8bdd 913d 7daf fbbd
000001e0: d59f 113e d16e d0bb 78af 9a3d 48e8 923d
000001f0: 61ca 3f3d 7e05 9039 9b8f 063e 0295 813d
00000200: e307 e23a 53d8 523c 1122 ea3d 8a05 a73d
00000210: 4455 343c 987e 0b3e c040 5a3d ac40 233a
00000220: fda5 b3bd 8786 2f3c 5300 c7bd 42a8 623d
00000230: 039a 0ebe d65a b33d 6b1c 9d3c de7d 583d
00000240: 7fdd d8bc e4ae 1c3d 2ed9 acbc 5d74 cdbd
00000250: 7ca1 e93c 6af7 90bc dab0 d3bc 45a3 92bd
00000260: 2e8d 9e3d 9e18 a43d 5bb3 7bbd 74ef 6abd
00000270: 82b4 183d b09f 9a3d 6ca3 24bc f4b9 aa3c
00000280: ebb4 ab3b 78a8 6ebd 2997 cdbd b1ca ef3d
00000290: 8e6c 063e 1479 ee3d a50f b83d 0787 803d
000002a0: 65f7 6cbd 0bd1 7dbc c9c9 08be f6f9 073e
000002b0: e9ec 0abe 7fec ef3d 82a8 ae3d 6d8b af3d
000002c0: 8c6d a3bd 0e75 fa3d c74a 033e 622b 7fbd
000002d0: 82c1 9fbd 9ecc cf3a b03e 31bc da81 85bd
000002e0: c5ae 0abe 79af 55bd b36d dbbd c6e8 213d
000002f0: 4f52 063e a55b 0fbd e148 3e3d efa1 92bd
00000300: 11d0 c9bb cb9f 67bd bd01 e03c c99f 533d
00000310: 3600 f6bd 4547 a7bd b076 a83d 76cf ab3d
00000320: 9db8 4e3d c6d1 1fbe ef1a 843c c22f e4bd
00000330: 48c4 f73b 93ab a03d f379 62bc b139 afbc
00000340: 1f65 17bc 40dd d0bd 72d5 79bd 7297 f6bd
00000350: cf14 86bd b145 d6bc 839a 023e 7554 23bd
00000360: a78a 0bbd 4fb2 2d3d 072a 09be 7901 f33d
00000370: 569f 5b3d b0ca 213d 44e7 f23d 2fcc 20bd
00000380: 9d01 22bc 3fd9 46bd a737 0bbe e093 1ebe
00000390: 156e 9bbd b976 823d 7993 7fbd cd81 8bbb
000003a0: 014f 44bd 4fea babd d89c fcbd ce1a ab3d
000003b0: 9211 03be 0aa5 eabd 7ba8 d4bc d74b 0c3d
000003c0: ec94 82bd de4f 66bd c40d 4bbc ced1 a73c
000003d0: 00ff 04bd e0a8 123e 1a3e 433d 563a 053e
000003e0: ba84 37bd dd17 c83d 9362 cbbd 75c2 f5bc
000003f0: ed1d 033e 1441 eabd ad7a 3fbd 8c02 f8bd
0.03452416 -0.15022516 -0.013295892 -0.016632963 0.024510287 -0.05349875 0.01379313 -0.028433507
0.023858052 0.07383327 0.10294342 0.10060932 0.027813759 0.057437878 -0.010483577 0.136117
0.007034207 0.0972273 -0.11497006 -0.12442094 0.1227837 0.062354162 -0.08930264 0.03550541
-0.0732635 0.061775263 -0.10722953 -0.025267854 0.015931122 0.0311598 -0.07077873 -0.14790061
-0.04978517 -0.03882007 0.12000881 -0.030968767 -2.935346e-05 -0.02784615 -0.020192627 -0.07956745
-0.07091185 -0.026316207 0.12482955 0.05988415 0.071433365 0.06375453 0.045180302 0.03473391
0.094241515 -0.051606987 0.015559498 -0.03627397 0.031675443 0.05315311 -0.1407442 -0.12104137
-0.121625125 0.11265173 -0.07912179 0.11718803 0.07222263 -0.12245816 -0.12554964 -0.09606417
-0.1098761 -0.06580918 -0.0904374 0.1270093 -0.12351299 -0.13241495 0.026753912 0.09218351
0.00596794 0.07350059 0.02169849 -0.13233396 0.008709541 0.03451894 -0.011380477 0.09645546
0.04336629 0.14130747 -0.06239579 -0.097361445 -0.14116772 0.041855674 -0.044842757 0.053577144
0.06286225 0.14949274 0.14277428 -0.118938 -0.14626469 0.057112698 0.031001072 0.112294026
0.109284356 0.018850029 -0.047138505 0.077344835 -0.01745685 0.090170264 0.11135543 -0.13100967
-0.08088648 0.015671158 -0.13237925 -0.09486974 -0.12788731 -0.09711964 -0.1318423 -0.043871846
0.027256433 0.05332823 -0.07696709 -0.105168715 -0.07008839 0.061307956 0.07122334 -0.12289331
0.14221127 -0.0063608666 0.07552999 0.071732104 0.046823863 0.00027469912 0.13140719 0.06327249
0.0017244782 0.0128689585 0.11432279 0.08155353 0.011006657 0.1362251 0.053284407 0.00062275934
-0.08771894 0.010713226 -0.09716859 0.055336244 -0.13925938 0.0875756 0.01917859 0.05285441
-0.026472805 0.038252726 -0.021099653 -0.1003196 0.028519385 -0.017696101 -0.025841165 -0.071600474
0.07741772 0.08012508 -0.061450344 -0.057357267 0.03728152 0.07549989 -0.010048728 0.020840622
0.005240073 -0.058266133 -0.10038597 0.11708582 0.13127348 0.116441876 0.08987359 0.062757544
-0.05785312 -0.015491734 -0.13358225 0.13278946 -0.13566937 0.1171503 0.08528234 0.08571515
-0.07979879 0.12229358 0.12821494 -0.062297232 -0.078005806 0.0015853827 -0.0108181685 -0.06518908
-0.13543232 -0.052169297 -0.10714283 0.03952863 0.13117336 -0.03499951 0.04645622 -0.07159793
-0.0061588367 -0.056548875 0.027344579 0.051666055 -0.12011759 -0.081678905 0.08225763 0.083891794
0.05046903 -0.15607366 0.016126124 -0.111419216 0.0075612403 0.07845225 -0.01382302 -0.021389814
-0.009240418 -0.1019845 -0.060994573 -0.12040605 -0.06546938 -0.026156278 0.12754254 -0.039875466
-0.034067776 0.042406376 -0.13394938 0.11865515 0.05361875 0.03949994 0.11860517 -0.039257225
-0.00988808 -0.048547026 -0.13595448 -0.15486097 -0.07589356 0.06370301 -0.0623965 -0.004257417
-0.047926906 -0.09126722 -0.12334603 0.08354722 -0.12799671 -0.1145726 -0.025959244 0.034252014
-0.06376061 -0.05622851 -0.012393419 0.020485785 -0.03246975 0.14322233 0.047666647 0.13010535
-0.044804312 0.097701766 -0.09930911 -0.02999995 0.12804385 -0.11438194 -0.046747852 -0.12109861

layer.6.bias f4 [50]
00000000: 87bf f2bc c2c8 153d 3d29 ae3d 0b62 83bd
00000010: f6a1 09be 6c64 103d bb55 90bc 3030 233d
00000020: d5f3 a63c 38ca c8bd 2518 9fbc 416a 88bc
00000030: 9a8b a13d 8fb9 4cbb e717 73bd d163 6abd
00000040: 7a77 bd3c a351 693c 96e1 9dbd 609a 20bd
00000050: da07 063d b801 4bbd e264 0f3e 358e abbd
00000060: 6ca3 36bd 6ce7 90bd 4db0 aebd f2b9 85bd
00000070: 66a9 063d 67f3 8a3c 6ef4 8c3c 5cc1 ef3d
00000080: aedf 94bd 6a5e 03be 66a2 58bd ce47 263d
00000090: 348c 9bbc 6f59 3dbd 6263 c9bb 4b36 ce3c
000000a0: 986a 053e 9050 013d 4b59 4d3d 0a31 803d
000000b0: eeda d4bd f0e0 a03d 5e80 ef3c 935c 72bd
000000c0: c24d ecbd bdae 583d
-0.029632343 0.03656841 0.08503959 -0.064151846 -0.1344069 0.03525202 -0.017619004 0.039840877
0.02037994 -0.09804195 -0.019420693 -0.016652228 0.07887955 -0.0031238531 -0.059348967 -0.0572241
0.02312826 0.014240655 -0.07709043 -0.039209723 0.03272233 -0.049562186 0.14003327 -0.08376733
-0.044589445 -0.0707539 -0.085297205 -0.06529607 0.032876395 0.016961766 0.017206397 0.11706802
-0.07269226 -0.12828985 -0.05288925 0.040595822 -0.018987752 -0.04622787 -0.0061458806 0.025172373
0.13028944 0.03157097 0.050133985 0.062593535 -0.1039332 0.078554034 0.029236015 -0.059170317
-0.115382686 0.05290102

layer.8.weight f4 [1, 50]
00000000: 2368 e63d 3362 0dbe 531f 11be 2858 f5bd
00000010: 0226 253d d148 a43d d540 c43d 3701 0abe
00000020: 88b1 febd a799 4cbd b9f2 51bd 7f46 b63d
00000030: b1ec 123d 7607 ac3d 2aaa f8bd 846d 1cbd
00000040: ed0d b7bc 89de 153d e8fc b1ba b9c0 d0bd
00000050: 5a4c 9cbd b8ab cfbd 7ec9 fcbd b0d1 0b3c
00000060: efe1 9ebd 1787 113e ac93 be3c a2e1 903c
00000070: e474 a93d 6a78 633d 3698 333d dc38 8a3d
00000080: 0704 f9bd fd16 debd 3931 9a3d 9ce8 eb3d
00000090: 02a8 eb3d 5c07 06be ca23 013e 5c50 0e3d
000000a0: c3d4 15be acd3 afbd 3ed9 e8bd eb27 1cbd
000000b0: 8d9a 0bbe 013a b3bd 0a36 c1bd bcf2 0c3e
000000c0: 85f8 ebbd 36e7 5c3c
0.11250331 -0.13806991 -0.14172105 -0.11979705 0.04031945 0.08021701 0.09582678 -0.13477026
-0.12436205 -0.04995122 -0.05125687 0.08900165 0.035870258 0.083998606 -0.12141831 -0.03819038
-0.022345508 0.03658918 -0.00135794 -0.10193009 -0.076317504 -0.101401746 -0.12343119 0.00853388
-0.07757937 0.14211689 0.023263775 0.017685715 0.08274248 0.055534758 0.04384633 0.06749126
-0.12158971 -0.108442284 0.0752892 0.11518976 0.11506654 -0.13088745 0.12611309 0.034744605
-0.14631943 -0.08585295 -0.11369561 -0.038124006 -0.13633175 -0.08751298 -0.09434135 0.13764471
-0.11522011 0.013482859
