Helm(4Pi)/Best - 副本.pt (torch, 35656 bytes, 9 tensors)

layer.0.weight f4 [50, 2]
000000 fb aa 6b 3f a3 db 85 bf da f7 48 bf 18 72 f4 be
       0.9205777 -1.0457653 -0.7850319 -0.47743297
000010 d6 66 34 3d 53 2b 01 be 41 f9 32 3f c0 78 87 bf
       0.044043384 -0.12614183 0.6991158 -1.0583725
000020 a6 32 2e 3f 6d 53 60 3e a0 57 41 3f 50 df 18 3e
       0.68046033 0.21906824 0.7552433 0.14928937
000030 99 24 5b 3f f2 78 a0 3e e1 52 8d 3e ef 5d 3f 3f
       0.8560272 0.31342274 0.27602294 0.74752706
000040 a4 42 0a bf c8 10 87 3f 8a 91 e4 3e 4f b2 84 3c
       -0.54007936 1.0551996 0.44642287 0.016198305
000050 2f e5 67 3e 82 6b 41 be b1 ee 4b bf 77 d3 57 3f
       0.2264602 -0.18888667 -0.7966109 0.84307045
000060 2e e8 b4 be a7 f3 19 bf ae c7 03 3f 8b 02 6e bf
       -0.3533339 -0.6013741 0.5147656 -0.9297263
000070 05 0f 50 3f 12 30 3c bf 09 15 0c bd e0 2f c2 bd
       0.8127292 -0.7351085 -0.03419975 -0.09481788
000080 7d e2 ca 3e 8c 74 9d be a6 92 89 be 17 e0 8e be
       0.39625922 -0.3075298 -0.26869696 -0.27905342
000090 68 a7 33 3f 36 3e 0c bf 7b 2a 25 be cd d4 c7 be
       0.70177317 -0.54782426 -0.16129486 -0.39029542
0000a0 4c 8e 26 bf fa cb 67 3f ef 56 21 3f 51 05 0e bf
       -0.6506088 0.9054562 0.63023275 -0.5547686
0000b0 b9 f9 04 bf 11 6d 82 3f 04 bd cd 3c 74 29 bf 3d
       -0.51943547 1.0189534 0.025114544 0.093340784
0000c0 6c 6a 2f 3e 71 0a 53 bf f2 df 5f 3f 46 fa 7d bf
       0.1713044 -0.8243781 0.8745109 -0.9921001
0000d0 36 ee 8a bf 99 15 6d 3f cf 9f d5 3d 26 b9 84 3e
       -1.0853946 0.9261108 0.10430872 0.25922507
0000e0 03 b4 05 bf 81 d9 ee be 97 61 01 c0 ba 5f a3 3f
       -0.522278 -0.46650317 -2.0215814 1.2763588
0000f0 cf e9 6b bf c3 fd ae bd bc c2 89 bf 86 e9 7a 3f
       -0.9215364 -0.08544495 -1.0762553 0.9801258
000100 29 f3 92 be f4 14 1b 3e 10 f5 9e 3e 45 cb 45 bf
       -0.2870114 0.15144712 0.31046343 -0.7726329
000110 3b e9 7b be d7 52 80 be 40 cf 1b bf ab 9e f6 be
       -0.24600689 -0.25063202 -0.60863113 -0.4816793
000120 c9 75 ea bd da 16 d9 be 79 2b db 3d 69 42 26 bf
       -0.11448247 -0.42400247 0.10701651 -0.64945084
000130 e6 2a 50 bf 1e 69 70 3e 46 97 ba 3f 2f 05 c9 3f
       -0.8131546 0.23477599 1.4577415 1.5704707
000140 03 54 25 37 6b 4e aa b6 1b c8 de bd 66 03 cb 3e
       9.854327e-06 -5.075524e-06 -0.10878011 0.3965103
000150 63 aa 4b 3e 1d 4e 55 3e 6c bb 85 3f da c4 65 bf
       0.19889216 0.20830579 1.0447822 -0.89753497
000160 33 c6 b7 be 58 34 be be 1a a3 9a bd 24 c4 15 bf
       -0.35893402 -0.3714931 -0.075506404 -0.5850241
000170 00 8c 0c 3f 97 25 80 3e 99 30 27 3e 60 ab 48 bf
       0.54901123 0.2502868 0.16327132 -0.783865
000180 c4 f7 84 be 9b 4c 22 3f 82 01 58 bf a2 57 a1 bf
       -0.2597028 0.6339814 -0.843773 -1.2604868

layer.0.bias f4 [50]
000000 8b 5b 0b 3f 74 dc 31 3f 70 d5 89 3d 59 76 21 3f
       0.5443656 0.6947701 0.06730163 0.6307121
000010 ec bc c8 be 03 f7 e8 be 6f 23 47 bf 6e 47 27 bf
       -0.39206636 -0.45500955 -0.7778844 -0.6534337
000020 3a 78 1d bf 7b 49 fc bd 1a 40 01 bd ca c0 8e be
       -0.61511576 -0.12318703 -0.031555273 -0.2788146
000030 d7 02 22 3f 9f ee f1 3e d6 09 67 bd f0 6a 36 be
       0.63285583 0.47252366 -0.056405865 -0.17814231
000040 75 e9 9a bd 2f 2d 14 3e a1 0d 6d be 2c 4f 78 3e
       -0.0756406 0.14470361 -0.2314973 0.24248952
000050 da cc 4b 3e 7d 0b c3 bd 4f 33 01 3e dc 4e 96 bd
       0.19902363 -0.095236756 0.12617229 -0.0733926
000060 94 db bb 3e e7 b6 37 be 1d 99 c1 be 78 8b 03 bf
       0.36690962 -0.17940865 -0.3781213 -0.5138469
000070 9a 18 36 3f db 59 2a bf c0 1d 2e 3f 1f 1d 19 3f
       0.7113129 -0.6654336 0.68014145 0.5981006
000080 85 bb 00 3d f8 4a 50 3e a6 94 e9 3e 93 a9 3e 3f
       0.031428833 0.20341098 0.45621222 0.744775
000090 d4 1c 57 3e 00 eb a4 3e 01 89 b8 3e 10 61 f6 be
       0.21007091 0.3221054 0.36042026 -0.48120928
0000a0 da 12 c3 b7 c8 45 41 be 73 9d 73 3d d9 48 1c bf
       -2.325459e-05 -0.18874276 0.059476327 -0.61048657
0000b0 ab 3a f2 3d 0a 4d af 3e bb 96 a4 be ee 85 dc 3e
       0.11827596 0.34238464 -0.32146248 0.4307093
0000c0 11 1f 70 be bb 9b e8 3e
       -0.23449351 0.45431313

layer.2.weight f4 [50, 50]
000000 30 11 44 bf e7 db 80 be b8 4a 04 be 5f e2 5b bf
       -0.76588726 -0.25167772 -0.12919128 -0.8589229
000010 6c 0c 08 be a9 06 6a bb 8c be de 3d 73 a8 b8 3e
       -0.13285989 -0.0035709536 0.10876188 0.36066017
000020 41 cc 57 3f 79 f5 ce be e8 7d 1b 3d cb 5d 3f 3f
       0.8429604 -0.40421656 0.03796187 0.7475249
000030 12 00 aa be d6 ae 96 bf da e1 bd be 58 1c b0 3b
       -0.3320318 -1.1772106 -0.37086374 0.0053744726
000040 e2 77 0d be 71 10 8a 3d 5f 77 df 3b e5 5c c4 3c
       -0.13815263 0.06741417 0.00681965 0.023970077
000050 fc a0 9c 3d 4d 51 41 be 9c 47 35 bd 0f 03 18 be
       0.07647893 -0.1887867 -0.044257745 -0.14844917
000060 1b bd 1a be 14 c3 88 be c7 c9 50 3f 80 db 22 3d
       -0.151112 -0.26711333 0.8155789 0.039760113
000070 ac d8 a9 be c2 98 5d 3f 47 e9 d8 3d c3 fd 9a bd
       -0.3317312 0.86561215 0.10591369 -0.075679325
000080 15 71 e2 3d 19 df 91 bd 5b 73 3b 3d ff 38 cd be
       0.11056725 -0.071226306 0.04576431 -0.40082547
000090 a1 d4 15 3e 54 10 91 be c0 5b 56 3e ed 31 35 bf
       0.14631893 -0.2833277 0.20933437 -0.70779306
0000a0 62 0d c2 bb 60 28 be 3e 83 4d 56 be b4 8f f1 3d
       -0.0059220055 0.3714018 -0.20928006 0.11794987
0000b0 6f aa b9 3b 71 67 3e bd 16 7d 9c bd 55 db e8 be
       0.005666069 -0.04648537 -0.07641046 -0.45479837
0000c0 cf b9 c4 3e be f7 04 3f e0 33 82 be 11 46 b7 be
       0.3842301 0.51940525 -0.25430202 -0.35795644
0000d0 5a 22 62 3b 59 a5 0f bf 69 8d bf 3c db 23 e3 3d
       0.0034505338 -0.56111676 0.02338286 0.11090823
0000e0 ab 60 8a 3e 3e 69 24 3f 89 e4 24 3f 91 5d b5 3d
       0.27026877 0.64223087 0.64411217 0.08855737
0000f0 4c 7b af bd 2a 37 0d 3e 95 d2 2b bf 46 dc 01 bf
       -0.08568439 0.13790575 -0.671182 -0.50726736
000100 57 d0 98 be f7 c7 5e bc ba 2b 3b be 31 df 2c be
       -0.2984645 -0.01359748 -0.18278399 -0.16882016
000110 ca 72 29 be 17 85 ed bd 66 05 99 3d 36 b5 18 be
       -0.16547695 -0.115976505 0.07471733 -0.14912876
000120 dc 59 03 3e 50 89 5c 3d 74 4d c9 be fe 95 eb bd
       0.12827247 0.05384189 -0.39316905 -0.11503218
000130 23 92 2e 3e c8 72 43 3e 7f 41 1f bf 35 94 d4 3e
       0.17047934 0.19086754 -0.62209314 0.41519323
000140 0a 0b b2 be 99 ea f9 bd 1e a8 b9 3c e3 2e 7e be
       -0.34774047 -0.12202949 0.022663172 -0.24822573
000150 7f 14 60 be 68 88 03 bf 2b 94 b1 bd b4 3a 9f be
       -0.21882819 -0.51380014 -0.08670839 -0.31099474
000160 b3 ce dd 3c 00 66 ec be 5c a4 ac 3a 63 57 8e 3d
       0.0270761 -0.4617157 0.0013171542 0.069502614
000170 70 59 87 3a 0e 4a 43 3e ea 8a 66 3b 66 e3 82 be
       0.0010326337 0.19071218 0.0035178014 -0.25564116
000180 24 61 08 3e 5a 95 e0 be 3b 75 4d 3e 20 77 42 3e
       0.13318306 -0.43863946 0.20064251 0.18990755
000190 af a5 63 bd 23 46 d9 be 79 7d 3a 3e 7e 1c ab bd
       -0.05557793 -0.42436323 0.18211927 -0.08355044
0001a0 b9 c5 ef 3e 7c 96 87 3e ac b6 30 3e 02 b5 47 3d
       0.46830538 0.26481998 0.17257184 0.048756607
0001b0 65 2a 33 3e e9 4c 8f 3e 5f ff 31 bd f1 01 67 3d
       0.17496641 0.27988365 -0.04345643 0.056398336
0001c0 ae 77 e0 bd 29 47 90 3d d7 5b 15 3e e1 e7 89 be
       -0.10960327 0.07044823 0.14585815 -0.26934722
0001d0 26 8b 0f be 92 e7 c6 be a4 8a 62 3d 3b 01 7f be
       -0.14017925 -0.3884855 0.055308 -0.24902813
0001e0 99 5a 6d bc 4f de b6 3d 06 1e 0a bd 11 c4 cc b9
       -0.014486932 0.08929121 -0.03372004 -0.00039055993
0001f0 f2 44 e7 bd c2 83 12 3d cc cf b7 3d e9 b0 05 be
       -0.11292447 0.035770185 0.08975181 -0.13055767
000200 9c 51 08 3d 12 b1 88 3e 07 ad 16 be 26 2d a2 be
       0.033280954 0.26697594 -0.14714442 -0.3167507
000210 66 b6 a5 bd 9d da aa bd cf ff 46 3e c8 ff 30 bd
       -0.0809143 -0.083424784 0.1943352 -0.043212682
000220 b5 6b a6 be e2 b9 f6 3b 3a 65 22 3b 47 c2 2b 3e
       -0.3250405 0.007529483 0.0024779574 0.1677333
000230 a0 b1 93 3c f5 5e 66 bd 74 70 bc 3e 1b 3e 58 3e
       0.018029034 -0.0562429 0.36804545 0.21117441
000240 e4 34 a1 be 87 cc 31 be bc bd d7 3e c7 90 09 bc
       -0.31485665 -0.17363177 0.42136943 -0.008396334
000250 54 b7 14 3b 03 cc 86 be 7b 37 d2 3e 80 2c 35 3f
       0.002269228 -0.26327524 0.41057953 0.70771027
000260 4c 91 0c 3e 02 9f 04 3f 6a 64 97 be 6e 76 a9 be
       0.13727301 0.51805127 -0.29568797 -0.33098167
000270 2d b9 9b bf 9c ec 60 bf d1 88 ab be 78 61 aa 3c
       -1.2165886 -0.8786104 -0.3350282 0.02079843
000280 23 3d fa bd c7 fd 6a be fc 5f 90 3f fd a9 a9 3e
       -0.12218692 -0.22948371 1.1279292 0.33137503
000290 b5 9b 87 bd 77 2e 70 be 9d 27 30 be 1f b6 7d bc
       -0.06621496 -0.23455225 -0.17202611 -0.015485316
0002a0 43 6e 91 be b0 01 87 3e b0 d6 74 3e 98 01 91 bd
       -0.28404436 0.26368475 0.23910022 -0.07080382
0002b0 dd 03 54 3e 29 fb f9 bd 62 f9 4e 3e 88 71 6d be
       0.20704599 -0.12206108 0.2021232 -0.2318784
0002c0 5a c8 a6 be 11 a6 02 bf e2 5c 9a 3f 03 c3 b7 be
       -0.3257473 -0.5103465 1.2059596 -0.3589097
0002d0 95 bd 5b 3f b4 54 c0 3e fc 5b b6 bd f2 d1 ee 3d
       0.85836154 0.37564623 -0.089042634 0.11661138
0002e0 09 d9 08 3f 6c 1e ab 3f ee 5f 22 3e 05 78 ca 3d
       0.5345617 1.3368659 0.15856907 0.09886173
0002f0 1d dc dd 3e e0 fe 01 3e 4c d2 f9 3b 35 45 ad bc
       0.43331996 0.12694883 0.0076239463 -0.021151165
000300 1f c4 c5 3d b3 15 10 bf 38 d0 1f 3d 3e 35 a9 3e
       0.09656548 -0.5628311 0.039016932 0.33048433
000310 d2 fa 80 be 03 ce ae 3e c5 cc ad bd fb 3b 69 3d
       -0.2519136 0.3414155 -0.08486322 0.056941967
000320 d2 55 c1 3c 64 4a 1f be 43 ed e7 3c b2 3e 97 bd
       0.023600493 -0.15555722 0.028311377 -0.07385005
000330 8b 23 cc 3d fa c4 46 bc 90 f8 fb 3e 61 3a 0d 3f
       0.09967717 -0.012131924 0.49213076 0.55167204
000340 10 af 5e bd df a2 f7 bd 59 a0 10 3d 74 40 4f be
       -0.05436617 -0.12091612 0.03530917 -0.2023943
000350 e2 b2 9a be 48 e3 c2 3d 7c d2 89 3e 14 09 f0 3d
       -0.30214602 0.09516007 0.269184 0.117204815
000360 03 3d fc 3d ec 0c 68 bd 39 e3 4c bd 38 fd 59 bd
       0.123163246 -0.05665295 -0.050021384 -0.053220004
000370 6b fe 27 3d bd 24 3c be 10 c8 bb 3d 28 ea 05 bd
       0.041014116 -0.1837339 0.09169018 -0.032694012
000380 5b 7e b3 bd 0c 0b 1d be 22 a0 52 be cd a0 48 3e
       -0.08764335 -0.15336245 -0.20568898 0.1959259
000390 d2 e7 b5 be 1a 04 b2 be 4c b0 b1 be c2 b2 ea 3d
       -0.35528427 -0.34768754 -0.34704816 0.114598766
0003a0 da fe 8b 3d de 4c d6 bb da 75 5c be 91 21 c0 be
       0.068357185 -0.006539925 -0.21529332 -0.3752561
0003b0 20 87 bb bd eb b1 00 be e3 03 57 be 8f 19 b0 bc
       -0.091566324 -0.1256787 -0.20997576 -0.021496562
0003c0 bf df 61 bc f5 94 1d bd 9a 50 06 be 04 24 f0 bb
       -0.013786255 -0.038472135 -0.13116685 -0.007328512
0003d0 17 96 98 bd da 77 8f be a9 d7 1d bd ed 8b 1f be
       -0.07450502 -0.28021127 -0.038535748 -0.15580721
0003e0 5c 5f 12 3e 62 52 97 bd ee f4 63 3e 2a 89 34 3d
       0.14294189 -0.0738876 0.22261402 0.044076122
0003f0 98 b4 14 be e6 12 86 3e 98 9a 0b be 09 42 27 be
       -0.14522016 0.26186293 -0.13633192 -0.16333784

layer.2.bias f4 [50]
000000 e2 97 af bd 5e 37 15 be 5e b1 a6 3e bf 27 d8 3e
       -0.08573891 -0.14571902 0.32557195 0.42217824
000010 15 3f 2d bd 6f 00 d7 be fd 1d ca 3d c1 2d a8 bd
       -0.042296488 -0.41992518 0.09869001 -0.08211852
000020 4f 0c a4 be 22 10 d7 bd 80 10 54 3e 81 65 da 3e
       -0.3204064 -0.10501124 0.20709419 0.42655566
000030 03 c8 73 be 08 e0 89 be 2f 04 11 3e bb 08 d9 bc
       -0.23806767 -0.26928735 0.14161752 -0.02649342
000040 4e 7b f0 3e a3 2a b6 3e aa 13 d6 3e cf 4f 0f 3e
       0.46969074 0.35579404 0.41811877 0.13995288
000050 cb 2e 54 be ff 6a a7 3e a9 08 90 be 5f 55 a1 be
       -0.20720975 0.3269882 -0.28131607 -0.31510445
000060 19 53 7f 3f 33 7d fb bc 0a 3c ca bd 29 b7 53 be
       0.9973617 -0.030699348 -0.09874733 -0.20675339
000070 26 51 45 be 0c fe 4e 3d 2e bc 9d be 93 79 97 3e
       -0.19269237 0.050535247 -0.30807632 0.2958494
000080 c0 fa 33 3a d3 db e3 3d 67 ba e0 3e 2b 2f a0 3e
       0.0006865673 0.111259125 0.43892214 0.31285986
000090 47 ae 52 be a6 d3 22 3e bd 99 15 3d c6 04 d6 bd
       -0.20574294 0.1590105 0.03652357 -0.10450129
0000a0 09 9f 90 bc 3f fc 82 be ff be ab bb de 21 f9 3d
       -0.017653959 -0.25583073 -0.0052412744 0.12164663
0000b0 2f ca bc 3d 8f 80 e9 bd f7 78 91 be 81 44 04 be
       0.09218251 -0.11401474 -0.284126 -0.12916757
0000c0 99 cd 3e bd 66 7a a5 bc
       -0.046582792 -0.020199966

layer.4.weight f4 [50, 50]
000000 30 08 96 bd 9c cc 92 3c e6 8c 60 be 76 cd af 3e
       -0.073257804 0.017919831 -0.21928748 0.34336442
000010 15 41 9f 3d dd 70 a8 3e 06 f2 8b be 77 ac 1b be
       0.07776085 0.32898608 -0.27333087 -0.15202509
000020 cb 67 7d 3e 74 ba e0 3d 5d fb e2 bd 90 e4 50 be
       0.24746625 0.10973063 -0.110831 -0.2039969
000030 24 40 68 be 31 2d 79 3e 7f 29 42 3e f9 3d 80 39
       -0.22680718 0.24333645 0.18961142 0.00024460236
000040 9a 78 13 be ce 59 e9 bd 42 d0 fa 3d 60 e6 3c 3e
       -0.14401475 -0.11394082 0.12246753 0.18447256
000050 c9 98 0c 3f 51 2f 69 3e 7d df ef bd 5f cf 12 3e
       0.5492063 0.22771956 -0.11712549 0.14336918
000060 25 6f f5 3d 9b ba 4e be 61 b5 85 be ab 12 a7 3d
       0.1198409 -0.20188372 -0.26114944 0.081578575
000070 9c 22 6e 3e d2 d9 1f 3c 35 36 d4 bc 4c 21 98 3c
       0.2325539 0.009756522 -0.025904754 0.018570565
000080 40 0b 4d bb 38 b5 d8 3d 22 86 0a 3e 3e b9 08 be
       -0.0031287223 0.1058144 0.1352773 -0.13351914
000090 95 9e 0d be 27 25 51 be f8 40 b4 be d0 cf c5 3e
       -0.13830025 -0.20424329 -0.35205817 0.3863511
0000a0 6f 04 3e 3e 00 83 4e 3e 32 28 75 bd e8 8d f0 3c
       0.18556379 0.2016716 -0.059852786 0.029364541
0000b0 df 21 77 3d 71 66 c5 be 88 6a 22 3e e6 9f 98 3c
       0.060335036 -0.3855472 0.15860951 0.018630933
0000c0 c6 c8 c9 3e 8d a8 e9 3c ce 92 18 3e 7c 3f 90 bc
       0.3941099 0.028522754 0.14899752 -0.017608397
0000d0 50 22 f2 3d e3 0f fb 3e f3 8c 66 bd 61 ee 11 be
       0.11822951 0.49035558 -0.056286763 -0.1425109
0000e0 bf cf db bb f7 fe 77 bd 6e a1 23 be c8 5f ec be
       -0.006708115 -0.060545888 -0.1597955 -0.46166825
0000f0 59 7e d5 bd ec fa d8 bc 55 a9 e4 3e 16 4e 59 3e
       -0.104244895 -0.026486836 0.4466044 0.21221194
000100 b7 9a 14 3e 7b 5a 2e 3b 5c 2c a6 3d 73 03 2b bf
       0.14512144 0.0026604224 0.0811393 -0.6680214
000110 e7 49 a2 be 05 62 81 3d 86 ba 96 3e 63 c8 51 be
       -0.31697008 0.06317524 0.2943918 -0.20486598
000120 74 18 5e bf 65 c6 81 be e7 cd 19 bc 35 1f b3 3e
       -0.8675606 -0.25346676 -0.00938747 0.34984747
000130 d4 65 35 3e d2 13 57 be d7 56 20 3e d1 91 cd bc
       0.17714626 -0.21003655 0.15658127 -0.025093945
000140 d2 d7 54 3e 61 a4 11 3d c6 12 49 bc c7 bb 7f be
       0.20785454 0.035557155 -0.012272542 -0.24973975
000150 75 33 e4 be c8 e0 23 bd 39 ed 11 3e 2d 46 5b 3e
       -0.4457051 -0.04000929 0.1425065 0.21413489
000160 07 6a 76 3e 3a 38 cb 3e 07 e3 f6 be 85 9c ab bd
       0.24063884 0.39691335 -0.48220083 -0.08379463
000170 ca c9 c7 3e 6c d3 31 be bc ef 34 3d ac 10 a2 3d
       0.3902114 -0.17365807 0.04417394 0.07913336
000180 89 2c ed bd c1 5e 9e be 58 62 ae bc 8c 5f 14 be
       -0.1158076 -0.30931666 -0.021287128 -0.14489573
000190 c2 5c 71 3e 87 c6 d3 3e 8c 7a 65 3f 23 14 10 be
       0.2357054 0.41362402 0.89640117 -0.14070182
0001a0 7e e7 92 be 25 6f 85 be d6 ff 43 3e 93 09 28 bf
       -0.2869224 -0.2606136 0.19140562 -0.6563961
0001b0 1b 47 d6 bd 1c 3a 64 be 45 ce 71 3e 76 d0 90 3e
       -0.10462781 -0.22287792 0.23613842 0.28284043
0001c0 72 b1 ab 3d 91 4b 9a be c1 f0 44 3f 47 3b d8 bc
       0.083834544 -0.30135778 0.7692986 -0.026395453
0001d0 3d 78 9d 3f b8 6b d5 bd 66 d2 09 3e b8 e2 41 bf
       1.2302319 -0.10420936 0.13459167 -0.7573657
0001e0 62 30 8e 3e 18 20 bf 3e 04 31 9a 3e 50 67 f0 be
       0.27771288 0.37329173 0.3011552 -0.4695382
0001f0 a1 d9 7b 3f d1 b8 31 3e 27 cc 5e bd be 50 9d be
       0.9837895 0.17355658 -0.054393914 -0.30725664
000200 a6 1a 8b 3e 2b 98 87 3c 23 df 96 bd 89 b0 44 3e
       0.2716877 0.016552052 -0.07366779 0.19207968
000210 23 22 a7 bc 45 c8 f0 3d 54 e4 19 bc 97 15 08 3f
       -0.02040202 0.117569484 -0.009392817 0.53157943
000220 be 98 0f bf d3 de bd 3e 56 18 3b 3e 5a 88 62 3c
       -0.5609244 0.37084064 0.18271002 0.013826454
000230 b6 00 13 bf 95 7a 9d be 8a 1f b3 3c 09 d8 a6 be
       -0.5742296 -0.30757585 0.021865625 -0.32586697
000240 0d d9 cf 3e 7a 75 10 3f 32 95 95 be ee 2e fc be
       0.40595284 0.56429255 -0.2921539 -0.49254555
000250 28 68 d9 bd 13 93 1c be 19 f4 28 bd f3 56 03 3e
       -0.10615569 -0.1529048 -0.041248415 0.12826137
000260 2f d0 9d 3e c9 33 9e 3c b3 e0 81 3d 9e 0e 4f bd
       0.30822894 0.019311802 0.06341686 -0.05055105
000270 ee 0e 8d be 54 21 f6 bd 66 2a 28 bd 7e 7d a8 bd
       -0.27550453 -0.120180756 -0.04105606 -0.08227061
000280 79 37 d4 3d 6f 80 b5 3e bd 3e 05 bf 1d 06 be 3d
       0.10362143 0.3544955 -0.52048856 0.0927851
000290 34 cb 99 3e fe 34 4b 3b 89 e2 02 3f f0 e3 b0 3e
       0.30037844 0.0031006928 0.51126915 0.34548903
0002a0 30 83 23 3e 16 81 86 be ff 02 30 3e 4b 13 b9 3e
       0.15968013 -0.2627036 0.17188643 0.36147532
0002b0 9d ae 60 3e ec c6 20 be c9 77 44 3f 84 b8 94 3e
       0.2194161 -0.15700883 0.7674528 0.29047024
0002c0 2d b8 12 3d 10 c9 e0 bc ac 2f be be 53 2b 00 3d
       0.035820175 -0.027439624 -0.37145746 0.031291317
0002d0 0e 8b 54 be 40 93 08 3e f5 b4 8b bc 3d 30 1d 3c
       -0.2075617 0.13337421 -0.01705406 0.00959402
0002e0 00 6c 28 3e dd fb a0 bd 69 c6 9e 3e 7d 32 27 3e
       0.16447449 -0.07860539 0.3101075 0.16327854
0002f0 2a 6a ef bd 08 42 17 bf 1b ad b3 be b9 10 a5 bd
       -0.11690171 -0.5908513 -0.35093006 -0.0805983
000300 32 ba c7 3d d1 42 e0 be 48 aa a0 3e f0 c6 aa be
       0.09752311 -0.43800977 0.31379914 -0.33354902
000310 d2 00 00 be 9e 5e b4 3a ee bd 0a bf 5e 90 f0 bd
       -0.12500313 0.0013761108 -0.5419606 -0.11746286
000320 59 50 e1 3b 36 ac a6 3c 95 87 12 3f 96 30 2f 3c
       0.0068760333 0.020345788 0.5723813 0.010692736
000330 42 6e d8 be 81 91 bc be 19 bf 63 bd 2e b1 4d be
       -0.4227162 -0.3682976 -0.055602167 -0.2008712
000340 49 cb b3 be 5d 2a a8 be 6c f4 c8 3e 8a 18 8b 3e
       -0.35116032 -0.3284482 0.3924898 0.2716716
000350 89 49 09 3e 9c 8c f8 be 0c 0a d5 3d 1a 6c 9b bb
       0.13406958 -0.48544776 0.10402307 -0.0047431113
000360 95 03 23 3e 80 ec c6 3c 93 28 98 3e 44 6d 79 3e
       0.15919335 0.024282694 0.29718456 0.24358088
000370 d6 fc 65 be 69 55 98 3e 30 aa c1 bd 41 70 3f 3e
       -0.2245973 0.29752663 -0.09456289 0.18695165
000380 40 fe 22 be 51 87 8e 3e 89 65 c7 bd af 8f 10 bf
       -0.15917301 0.27837613 -0.09736163 -0.56469244
000390 f3 3b 6d 3e d9 a8 ce 3d bf 7f 54 be 37 80 ad 3e
       0.231674 0.10090799 -0.20751856 0.33886883
0003a0 af 8e d6 bc 84 45 9d be 2c c3 34 3e fc c8 ca bd
       -0.026191084 -0.307171 0.17652577 -0.09901616
0003b0 46 be eb 3d 84 98 68 be da 09 60 bd 44 dc 9b be
       0.11510901 -0.2271443 -0.054696895 -0.30441487
0003c0 1b e9 a4 3e cd 85 35 bd aa be 4f be 32 e2 82 3e
       0.32209095 -0.044317055 -0.20287576 0.25563198
0003d0 ee 2a 87 be 67 ce af 3e 86 f5 36 be d0 4a 18 3e
       -0.2639994 0.3433716 -0.17867097 0.14872289
0003e0 e7 fc 04 bf 07 cf 3c 3e 7b 1b be bd 9e b9 3f 3e
       -0.519484 0.1843835 -0.09282585 0.18723151
0003f0 35 f6 87 3e e0 ae 49 3f 75 82 1c bd b2 ca e6 3d
       0.2655503 0.78782463 -0.03821035 0.1126913

layer.4.bias f4 [50]
000000 e3 3c b5 bc 0a 0b d8 3d 08 69 54 3a 50 9f cc 3e
       -0.02212376 0.105489805 0.0008102809 0.39965296
000010 d5 45 a2 bd cc e1 cb 3d 6b 7d 06 be 62 c8 1c bd
       -0.07923476 0.09955177 -0.1313378 -0.038277037
000020 71 13 44 be c5 45 e4 bc 4d 3f 97 3e 41 92 88 3e
       -0.19148041 -0.0278653 0.29540482 0.26674083
000030 f4 49 89 3d c9 a7 ca be 7d ae 7a 3e 5d 15 28 3c
       0.067035586 -0.39581135 0.24480624 0.010259
000040 bf f1 dc be 09 74 36 3e 35 24 a7 be f6 20 b6 3c
       -0.43153188 0.17817701 -0.3264481 0.022232514
000050 e4 68 c6 be ea 3d e2 bd e7 bb c4 3b ab d6 0c bd
       -0.387519 -0.110469654 0.006003845 -0.03438441
000060 08 3f 87 3d 3c 7f 8a 3e bd 90 92 3d 97 b8 de 3d
       0.06603819 0.27050197 0.07156513 0.108750515
000070 f8 38 e8 be af c7 62 3d a3 24 70 be e2 5c 8c be
       -0.45355964 0.055366214 -0.23451476 -0.27414614
000080 b1 a7 36 3e d8 dd 4a 3e d4 86 25 be 65 01 32 bc
       0.17837407 0.19811189 -0.16164714 -0.01086459
000090 ea 4f 0f bc eb 6d 35 be 92 3b 80 3e b5 23 59 3e
       -0.00874708 -0.17717712 0.2504545 0.21205027
0000a0 4c cf 8e bc 35 84 47 3d 0f d0 43 3e e8 8b cf 3e
       -0.017432831 0.048710067 0.19122337 0.40536427
0000b0 93 be 69 3e ee 04 dc 3c 0e fd 35 be ea 9f 20 be
       0.22826605 0.02685782 -0.17772314 -0.15686002
0000c0 10 e3 dd bb 0f 6e aa ba
       -0.0067714527 -0.0013002771

layer.6.weight f4 [50, 50]
000000 92 4e 3f 3e e6 ba 1c bd a7 d3 4c 3d 4d db aa be
       0.18682316 -0.038264178 0.050006535 -0.33370438
000010 84 cb 8e 3e 8c 0e 81 be 6d 21 98 bd 28 c4 cb 3c
       0.27889645 -0.2520641 -0.074282505 0.024873808
000020 b1 fa d9 bd 40 9f 74 3e 8f 68 32 3d 19 d8 76 be
       -0.10643519 0.23888874 0.043556746 -0.24105872
000030 8d 65 10 3f 56 1c 86 3e 52 7a f5 3e df 41 a2 be
       0.56404954 0.26193494 0.47944885 -0.3169088
000040 27 33 a7 bc 67 f4 c4 be e5 03 e1 3d cb ff 12 bc
       -0.020410134 -0.38467714 0.10987071 -0.008972119
000050 4b 71 9b be 17 e7 05 3e 1c d8 e0 3e 65 5c a5 3e
       -0.30359873 0.13076435 0.43914878 0.32297054
000060 83 33 26 be 88 48 98 bd 2f 06 c4 be ed 20 82 3e
       -0.16230588 -0.07435709 -0.38285968 0.25415745
000070 ca b1 cd bd 77 d2 a4 be 38 cc 40 bd 8d 99 44 be
       -0.10043676 -0.32191822 -0.04706976 -0.191992
000080 09 d5 47 3e 7e f2 33 bd 8a 84 3d 3e 07 ef 37 be
       0.1951486 -0.04393243 0.18507591 -0.17962275
000090 15 74 c0 3e 23 dd 87 be e9 2f c1 be 7f f7 45 be
       0.37588564 -0.265359 -0.37731865 -0.19332694
0000a0 62 72 07 3d 86 25 84 3c f8 a0 0d 3d 2d 94 b0 3e
       0.03306807 0.016131174 0.03457734 0.3448805
0000b0 67 f7 98 3d 8e 96 64 3d 34 ce 88 3e 22 a5 e7 bd
       0.07469063 0.055807643 0.2671982 -0.113107935
0000c0 52 d3 07 bc ef 9b ae be 0f e4 31 be 4b 19 da be
       -0.008290129 -0.34103343 -0.17372154 -0.42597422
0000d0 dc f3 d7 3e 36 b0 1b 3e 9e cd 63 3e 96 0d 78 3e
       0.42178237 0.15203938 0.22246405 0.24223933
0000e0 11 58 c8 be e5 a5 ce bd d4 9b 56 be 73 b8 75 3c
       -0.3912969 -0.100902356 -0.20957881 0.014997589
0000f0 c4 74 78 3e 84 a1 28 3f 53 24 8c 3e 64 9d d3 3a
       0.24263293 0.65871453 0.27371463 0.0016144929
000100 f0 85 9b 3d 7e 1d 41 bf f3 c9 41 be 45 9b b5 3d
       0.07593906 -0.75435627 -0.18924694 0.08867506
000110 2d 1a 06 3e be 5e 95 3d 0e 3a 61 3e f5 3a 5b be
       0.13095923 0.07293461 0.21994802 -0.21409209
000120 df bf 82 3d 15 7c 9d 3e 76 b2 88 3d 55 d3 21 3e
       0.06384253 0.3075873 0.06674664 0.15803273
000130 5f 95 34 3d 5e 5d b9 3c 8d 58 00 bb 38 69 2c 3e
       0.044087764 0.022627529 -0.001958403 0.16837013
000140 95 f8 9d 3d a3 7a 66 be 9f d1 18 3e 66 c1 8b be
       0.07713429 -0.2250772 0.14923714 -0.2729599
000150 57 5e 36 be f0 f2 64 3e 77 e6 f4 3e 3a e9 df bc
       -0.17809425 0.22358298 0.4783208 -0.02733289
000160 39 7b 9a bc f4 35 59 be 2c df 1a be 6f 23 66 3c
       -0.018857585 -0.21211988 -0.15124196 0.014046534
000170 c8 81 18 3e a5 11 c4 3e d3 48 7d be b3 67 52 3e
       0.14893258 0.38294712 -0.24734811 0.2054737
000180 f3 c2 c8 3e 53 50 4e be d8 55 c1 3e a9 66 b7 3d
       0.39211234 -0.20147829 0.37760806 0.08955128
000190 fd 53 17 be 86 1e 35 be 5f 03 51 bf 76 c9 b6 bd
       -0.14778133 -0.17687425 -0.8164577 -0.089251444
0001a0 71 ae 86 bd 08 ad ae 3d 11 0d 6c 3c d0 98 7b 3e
       -0.06576241 0.08529097 0.014407412 0.24570012
0001b0 cc d1 3a 3e ce 82 7a 3e 01 7f 8a be 58 79 d2 bd
       0.18244094 0.2446396 -0.2705002 -0.10277051
0001c0 21 ea c6 be ae fe c0 bc b5 e5 07 be 8f 4d fc 3d
       -0.388505 -0.02355894 -0.1327122 0.12319481
0001d0 90 ac 55 be a1 96 3e be 9a 17 8f 3d 12 1b 32 bc
       -0.20866609 -0.18612148 0.069869235 -0.010870712
0001e0 f7 2e e1 3e c6 32 9b be d1 83 80 be 52 30 fe bc
       0.43981144 -0.30312175 -0.25100568 -0.0310289
0001f0 9c 45 22 3f 90 4c 08 be 54 62 f5 3e f6 9f 03 bf
       0.63387465 -0.13310456 0.4792658 -0.51415956
000200 a1 ec 02 be b9 e8 3e 3d 08 9a de 3e 36 ee 31 be
       -0.1278558 0.04660866 0.43476892 -0.17376027
000210 f4 c1 e5 bd 84 54 90 bd 00 15 81 3e d8 25 fb 3e
       -0.11218634 -0.0704737 0.25211334 0.4905231
000220 f8 d8 08 bf 4c 37 90 3d 2d 78 42 3c b6 f5 1c bd
       -0.5345607 0.07041797 0.011869472 -0.038320266
000230 71 69 a7 be ff b2 4c 3f c7 04 b3 3d 81 bd 09 bf
       -0.32697633 0.79960626 0.087411456 -0.53804785
000240 7d ce 54 3d 91 45 35 be 18 80 0f bd d1 8c 07 bd
       0.051954735 -0.17702319 -0.03503427 -0.033093277
000250 42 3a 81 3b 64 de ca 3e 97 be 53 3e f9 ba 4c bf
       0.0039437125 0.39622796 0.20678173 -0.799728
000260 29 f8 9e 3e 96 0f 41 be 20 37 2f 3e cd eb 1b bf
       0.31048706 -0.18853602 0.17110872 -0.6090668
000270 57 f5 25 be 58 77 8a be ab e9 86 be 74 47 ce 3e
       -0.16206871 -0.27044177 -0.2635015 0.4028889
000280 ab 43 8e be bc 4d 02 3f 7c 72 6d 3e 8f 26 dd 3e
       -0.27786002 0.50899863 0.23188204 0.4319348
000290 11 2c cf 3d d9 37 d6 be 98 1c 80 3c 76 2e 1d bf
       0.10115827 -0.41839483 0.015638635 -0.6139902
0002a0 26 c8 0b 3e e8 a5 1e be df b9 f8 3e 3c 89 a3 3d
       0.1365057 -0.15492976 0.48579308 0.0798516
0002b0 78 b9 02 bf 10 e1 cc 3e 1c a8 51 bd 39 52 35 bf
       -0.5106425 0.4001546 -0.051185712 -0.70828587
0002c0 e6 e6 8e 3e 0f 22 d6 bd a6 99 46 be b3 e7 4b 3e
       0.27910537 -0.10455715 -0.1939455 0.19912605
0002d0 46 47 c9 3e e4 51 3e be 90 8d 76 3e 27 8e 79 3d
       0.3931219 -0.18585926 0.2407744 0.060926583
0002e0 e0 62 03 3e 7a ee 3b 3e 1a 52 93 3d 3f 56 85 3c
       0.12830687 0.1835269 0.07193394 0.016276477
0002f0 44 63 b4 bc ae e7 5f be 7c a5 ea bd 05 d1 5c 3e
       -0.02201999 -0.21865723 -0.11457345 0.2156411
000300 bc 9c 68 3d ef 6e 84 be 2b 58 29 3e 71 c2 93 3e
       0.0567901 -0.25865886 0.1653754 0.28859285
000310 c1 a6 7e bd 3d 8a ef bd e0 f7 10 bd 15 d5 98 bd
       -0.062170748 -0.11696289 -0.035392642 -0.07462517
000320 58 d1 b5 3d 2b 0c f2 bd 91 09 85 3e 50 74 1a 3f
       0.0887782 -0.11818727 0.2598386 0.6033373
000330 dd ac 92 be 83 76 c2 3f 0a 84 cb 3d 0c 1e 1c 3e
       -0.2864751 1.5192417 0.09937294 0.15245837
000340 eb 3c 56 3e ff ec cc be d5 e5 dc 3d da a4 d1 3d
       0.20921676 -0.40024564 0.107860245 0.10236521
000350 0e 4a e8 3d dc ee 0a bf 8b e2 a6 3e ef 76 ee 3e
       0.1134225 -0.5427072 0.32594714 0.46575114
000360 cc f2 87 be 03 8c cf bd 93 9a d3 bd 0e ec 65 3d
       -0.26552427 -0.10134127 -0.10332217 0.056133322
000370 15 24 e4 3e f5 8f 00 3d cb 5e 5e bf ed be 26 be
       0.44558778 0.031387288 -0.8686339 -0.1628377
000380 22 8a 4b bd 72 fe 19 3f 71 6e 85 3e f6 25 7f be
       -0.04969228 0.6015388 0.26060823 -0.24916825
000390 b2 c8 b6 be aa b9 1f 3f b0 99 3f 3e 4b 3e c7 3d
       -0.35699993 0.62392676 0.18710971 0.09728678
0003a0 63 e2 94 3d 8c 05 82 be 06 2b c5 bd 4f cd 6a 3e
       0.07269742 -0.25394857 -0.09627347 0.22929882
0003b0 7f 44 9c bd 97 9f 04 bf b3 6b 27 be d2 a0 2b 3e
       -0.07630252 -0.51806015 -0.16349678 0.16760567
0003c0 46 12 25 be 21 ce 31 be c7 d5 6b 3d 29 b7 33 be
       -0.16120252 -0.17363788 0.05757692 -0.17550339
0003d0 f3 f0 17 3e f2 0c 2b 3c 5a d5 d8 be df 11 52 be
       0.14838009 0.010440098 -0.42350274 -0.2051463
0003e0 32 95 36 be b2 ef cc 3d e7 76 4e 3e 64 ae 0f 3e
       -0.17830351 0.10006656 0.20162545 0.14031368
0003f0 35 a5 7d be 9c 34 83 be 1e 4d b2 3e 6c 45 1d be
       -0.24770053 -0.25626075 0.3482446 -0.15358514

layer.6.bias f4 [50]
000000 55 a0 c3 bd 44 19 83 3d d7 36 c5 bc 57 f7 68 bd
       -0.09552065 0.064013034 -0.024074001 -0.056876507
000010 46 c2 12 3d 75 a3 d2 3e 09 20 c4 bd 5a 72 2f bd
       0.035829805 0.41140333 -0.09576423 -0.042833664
000020 89 f8 dd 3d 86 bd 1b 3a ea 42 cd bd 45 8a eb bd
       0.1083842 0.0005941022 -0.100225285 -0.11500982
000030 ff 1c c4 3d 07 a6 95 bc fe a5 08 bd 0b 47 32 bc
       0.09575843 -0.018267645 -0.033361427 -0.010881196
000040 2c 13 e4 bd 00 ab d1 bd c2 62 71 bd fb ef 0a 3e
       -0.11136469 -0.10237694 -0.058932073 0.13568108
000050 d3 df 2e be 2b 74 29 3c b0 5e a6 3c 50 06 c1 bb
       -0.1707757 0.010342638 0.020308822 -0.005890645
000060 4b a3 2a bd 59 3f 60 be 4c 6e 08 ba 25 55 91 bd
       -0.041659635 -0.21899165 -0.0005204424 -0.07096318
000070 5b 3b cd bd 84 ea b5 bd 73 5b 05 3e 46 71 1a be
       -0.10021087 -0.08882621 0.13023166 -0.15082273
000080 ab 64 f7 3d 40 5f 32 3e cb 4b c1 3d ca b5 98 bc
       0.12079748 0.17419147 0.094382845 -0.018641371
000090 40 51 8d 3e 26 97 a6 be 53 31 26 3e 6e 0f 62 3e
       0.2760105 -0.32537192 0.16229753 0.22076198
0000a0 4a f4 6d 3c a2 c0 f5 3d de b9 a2 bd 43 6a ef bd
       0.014523575 0.119996324 -0.079456076 -0.1169019
0000b0 49 be 03 bd dc f3 88 bd e2 8e cf bd 51 d5 b6 bc
       -0.032163892 -0.066871375 -0.101346746 -0.022318514
0000c0 d0 e7 28 bb 10 da c8 3d
       -0.0025772937 0.09807217

layer.8.weight f4 [1, 50]
000000 35 f4 0c be bb 8e 90 bd bc 56 9a be 74 36 04 be
       -0.13765033 -0.07058474 -0.30144298 -0.12911397
000010 45 66 90 3c e0 3a 9a be 13 47 16 3a 61 8f b7 bd
       0.01762689 -0.30123043 0.0005732637 -0.08962894
000020 e9 0a 32 3e c9 ce a6 bd 58 9f ef bd 6c 24 66 bc
       0.17386974 -0.0814491 -0.11700314 -0.01404677
000030 92 75 aa 3d d6 df a1 be 5a dd 5a 3e 3a 61 68 be
       0.08323206 -0.31616086 0.21373501 -0.22693339
000040 74 11 43 3a 41 6c 3d bc 7a 27 40 bd ea 29 b1 bc
       0.00074412604 -0.011561454 -0.046912648 -0.021626431
000050 64 64 5e 3a fa c6 7c ba 12 96 c2 3c 05 c0 99 3e
       0.00084835873 -0.0009642687 0.0237532 0.30029312
000060 81 b5 15 3e b8 81 40 3e ba e0 37 be e0 9f ca 3d
       0.1462002 0.18799484 -0.1795682 0.09893775
000070 d7 ad 73 be 1c 46 3c be 8e 7f 1c 3d 50 2b 8f be
       -0.23796783 -0.1838612 0.038207583 -0.27962732
000080 e2 94 15 3d d8 05 0d 3e 0d f4 66 b9 dc 65 24 bf
       0.03651894 0.1377176 -0.00022025425 -0.64217925
000090 a8 a2 50 be bf 4d 08 3e 8c 14 64 3e 7e 42 87 be
       -0.20374548 0.13310908 0.22273463 -0.26417917
0000a0 54 1a cf bd 73 ba ac 3e 69 dc 9b 3d 9e cb ac 3e
       -0.101124436 0.33736 0.07610399 0.33749098
0000b0 e1 e8 48 be be 07 aa bd b2 04 64 bd d6 ae 10 3e
       -0.19620086 -0.08302258 -0.05566854 0.14129195
0000c0 28 eb 18 be 69 a9 d2 3d
       -0.14933455 0.10286219
