Heat(Steep Gradient)/Best_Heat_Large_Gradient.pt (torch, 35656 bytes, 9 tensors)

layer.0.weight f4 [50, 2]
000000 60 c3 24 39 df 2e 3a b6 7e 57 11 b9 12 06 ac 37
       0.00015713042 -2.7743442e-06 -0.00013860871 2.0506825e-05
000010 c6 e3 dd b7 26 5b e8 38 6d fc 14 b8 ba 6d be b7
       -2.6451318e-05 0.000110796 -3.552104e-05 -2.270086e-05
000020 e4 40 17 b9 cf 42 1b b8 d5 fb 2e 38 c2 c2 2d b9
       -0.00014424656 -3.70171e-05 4.171937e-05 -0.00016571119
000030 1d 6c 81 b8 0c bd 36 b5 a8 49 14 38 fa bd db 38
       -6.171337e-05 -6.807538e-07 3.5354547e-05 0.0001047812
000040 db 96 5a b8 e6 59 03 b5 bb 48 57 3b a2 2d 5a bf
       -5.2115745e-05 -4.893212e-07 0.0032849747 -0.8522588
000050 b7 fd 54 36 94 b3 9f b8 fa db 4b b8 6c 11 95 b8
       3.1738143e-06 -7.61516e-05 -4.860384e-05 -7.108119e-05
000060 1f e3 b9 38 c7 32 bf 38 70 c4 3e 38 97 81 ef 36
       8.863792e-05 9.117048e-05 4.5482477e-05 7.1378413e-06
000070 df 3f c4 38 25 6e 22 38 6d 8b 96 38 60 ab 96 38
       9.357905e-05 3.872639e-05 7.1785274e-05 7.1844785e-05
000080 8b 5a b6 b8 24 f4 90 38 30 78 25 38 6e b5 84 b8
       -8.695301e-05 6.91193e-05 3.9451e-05 -6.3280444e-05
000090 2d 62 ab b7 89 46 b4 b7 82 43 55 bd 42 19 0e 40
       -2.0430505e-05 -2.1490518e-05 -0.052066334 2.2202916
0000a0 b3 50 ae 3d 23 c5 06 c0 0f ba 97 3b 78 7b 00 c0
       0.08511486 -2.1057823 0.004630334 -2.007536
0000b0 2d 95 79 bb 81 a3 00 40 0a 54 c8 37 11 89 22 38
       -0.00380833 2.0099795 2.3880992e-05 3.8751463e-05
0000c0 ed 93 85 38 c8 b4 81 b8 29 c1 d4 be bb 90 04 c0
       6.3694875e-05 -6.1848725e-05 -0.4155362 -2.0713336
0000d0 e1 76 35 38 65 c7 a9 38 1e a9 fb 38 e5 fd d0 38
       4.3264477e-05 8.095688e-05 0.00012000113 9.9655044e-05
0000e0 31 01 09 b8 24 23 01 b8 5d 2f 71 b8 39 17 33 b8
       -3.2664455e-05 -3.0788724e-05 -5.7502988e-05 -4.2698553e-05
0000f0 9f 27 8b b8 ec 85 d3 b8 8f 7b 86 3f 8d 5a 85 3f
       -6.6354165e-05 -0.00010086209 1.0506457 1.0418259
000100 ba 6c 57 bf 23 2c 5a 3f e5 b0 2a b7 ce f3 84 38
       -0.8415028 0.852236 -1.0173976e-05 6.339663e-05
000110 23 8a 45 38 dd 97 da 37 3f 70 11 b8 24 18 ba 38
       4.709711e-05 2.6058342e-05 -3.467523e-05 8.873668e-05
000120 e2 89 46 b7 13 59 90 b8 3c 02 f4 3d 4e a1 13 c0
       -1.1833823e-05 -6.8830464e-05 0.11914489 -2.3067203
000130 95 86 01 38 2e b7 4f 37 40 9d 9d b7 7b fd c6 b8
       3.0881336e-05 1.2380811e-05 -1.8789084e-05 -9.48859e-05
000140 21 83 36 38 ac fe ef 38 7e 9b d7 38 bf c1 3b 38
       4.3514305e-05 0.000114438444 0.000102809616 4.4764714e-05
000150 72 ba ab 3e ac 77 cd 3f 2f 15 c6 bc 2d d8 fc 3f
       0.33540684 1.6052146 -0.024180023 1.9753472
000160 fc de d6 3d 46 2e 07 c0 45 d4 a8 34 9f 10 88 b7
       0.1049175 -2.1121993 3.1446885e-07 -1.6220203e-05
000170 24 af 1c 38 88 24 9b b7 57 a0 5f b8 ca f3 bd b7
       3.735641e-05 -1.8494451e-05 -5.331667e-05 -2.2644079e-05
000180 0e ba 8a 37 db 42 16 35 b5 5a c8 b8 8b d0 e1 b8
       1.653752e-05 5.597664e-07 -9.553639e-05 -0.0001076768

layer.0.bias f4 [50]
000000 7d cc d6 37 27 83 e2 b7 44 b3 93 b8 7b 95 55 37
       2.560601e-05 -2.7002372e-05 -7.042897e-05 1.2730593e-05
000010 57 6e 63 37 07 0c bb 38 30 03 7e b5 e6 73 77 b8
       1.3555945e-05 8.919095e-05 -9.462701e-07 -5.8997328e-05
000020 0b d8 c3 b7 0b 16 db 3e e6 73 3e 38 96 f4 ab 36
       -2.3346414e-05 0.42790255 4.540747e-05 5.1246707e-06
000030 3b 89 18 b8 74 2c 7e 37 e6 c2 19 36 b6 b3 2a b7
       -3.636743e-05 1.514993e-05 2.2912222e-06 -1.0174632e-05
000040 91 3e 31 b8 40 bc 0c 38 67 03 86 b7 f8 19 86 bf
       -4.2258358e-05 3.3553923e-05 -1.597563e-05 -1.0476675
000050 f1 02 7b 3f c3 bb 7f 3f 99 46 80 bf 10 bf a1 b7
       0.98051363 0.99895877 -1.0021545 -1.9281666e-05
000060 36 28 6d 38 a5 4e 83 3f 75 bc 75 b8 c7 84 42 b8
       5.6542653e-05 1.0258375 -5.8588066e-05 -4.6376863e-05
000070 3f 7f e0 36 d9 e5 2f 37 33 12 72 37 36 6e bc 3e
       6.6905336e-06 1.0484328e-05 1.4428561e-05 0.36802834
000080 98 a6 a8 3d d9 ca d5 b7 8c b7 20 b5 d6 5b 4a b8
       0.082349 -2.5486037e-05 -5.987174e-07 -4.8246082e-05
000090 4c b3 ee 37 7b 83 85 3f c1 f6 72 37 df 7b 6f 38
       2.8455303e-05 1.043075 1.4481776e-05 5.7097404e-05
0000a0 89 6d fe b7 2c 97 a5 36 9c c9 54 bf f8 2a 7b bf
       -3.0330166e-05 4.934982e-06 -0.8312013 -0.9811244
0000b0 8f 6e 7a 3f c1 86 a6 37 30 97 0f b8 eb e2 a9 b7
       0.9782495 1.9851492e-05 -3.423466e-05 -2.0252037e-05
0000c0 07 0a 7c b6 80 69 75 38
       -3.7556763e-06 5.8510806e-05

layer.2.weight f4 [50, 50]
000000 2f aa 6c 3a 13 95 de ba 0e a8 0b 3b f1 a0 1a bb
       0.0009028045 -0.0016981683 0.0021309885 -0.0023594464
000010 98 4d 08 bb 2b 2f e3 3a fa c7 16 bb e1 3a e0 ba
       -0.0020798203 0.0017332783 -0.002300738 -0.0017107391
000020 3e 67 f7 b9 fa 45 3a 3f 00 43 f8 3a 82 65 d2 3b
       -0.00047188433 0.72763026 0.0018940866 0.006420792
000030 e2 0b df ba 37 54 0c 3a a4 d3 bb 38 1f 23 eb b9
       -0.0017017091 0.0005353125 8.956276e-05 -0.0004484886
000040 6e 1c 6c bb b2 33 0f bb c0 a8 dd 39 5b 7a 62 bf
       -0.0036027688 -0.0021850881 0.00042278133 -0.8846795
000050 ab 0f 1f 3f cf f6 76 3e 4a 26 00 bf 0a a5 b8 ba
       0.6213328 0.24117588 -0.50058424 -0.0014087271
000060 28 a2 75 3b 4c d7 13 3f 6e 38 63 3a 85 15 16 3a
       0.0037480686 0.5775039 0.00086677715 0.00057252526
000070 65 f6 58 39 ba ce 03 bb 1b 5d 25 3a ff 7f 16 c0
       0.00020691154 -0.0020112232 0.0006308124 -2.3515623
000080 5c 5c ce 3e 6d 9a f1 38 1f 8d 88 3a bd 10 42 ba
       0.4030484 0.000115205396 0.0010418034 -0.0007403007
000090 14 5c b7 ba 7c 83 cf 3f 36 62 88 ba f5 73 9c ba
       -0.0013989233 1.6212001 -0.0010405246 -0.0011936413
0000a0 f4 cf 54 3a 07 6f 55 3b c0 38 b0 be 14 a4 c6 be
       0.00081181456 0.0032567398 -0.34418297 -0.38797057
0000b0 88 0a b1 3f 09 32 bd 3a 95 f0 3d 3a da 23 74 3b
       1.3831339 0.0014434467 0.00072456273 0.0037252815
0000c0 12 24 cb 3a 3b a5 20 3b 60 94 53 bb 4d 16 0e bc
       0.0015498421 0.0024512548 -0.0032284483 -0.008672309
0000d0 17 38 b3 bb 98 01 dd 3b 82 d9 98 3b 51 74 52 bb
       -0.005469333 0.0067445748 0.004664601 -0.0032112787
0000e0 91 41 e5 3b 69 53 4a bc 25 03 ba bb 7f 14 cb bf
       0.0069963415 -0.012348988 -0.0056766444 -1.586563
0000f0 f5 4c b2 3b 82 1e b5 bb f4 03 20 bb af 45 7b 3a
       0.005441303 -0.0055273185 -0.0024416419 0.0009585274
000100 0a 90 8b bb 4c 54 b6 3b 49 d5 10 3c cb 8b 03 3b
       -0.004259114 0.005564248 0.008839914 0.0020072337
000110 9e bf 62 bb 12 11 b1 bf d4 55 81 bf 41 d7 0d bd
       -0.0034599076 -1.3833334 -1.0104318 -0.03462911
000120 be a0 c7 3d 70 ae 32 ba 42 66 08 bc da 7a 8c 3f
       0.09747456 -0.00068161543 -0.008325161 1.0974991
000130 22 21 e1 3b de 03 8b bb 3e c0 75 ba 2c 39 65 ba
       0.006870405 -0.0042424044 -0.00093746546 -0.0008744176
000140 4e 39 07 bc 59 92 6b bd 08 7b 52 3e f0 41 21 3b
       -0.008253409 -0.057512615 0.20554745 0.0024605952
000150 fa a9 e7 3b cc 74 b8 3a 2a dd 30 3c 2f 39 b7 3f
       0.0070698233 0.0014072894 0.010794917 1.4314326
000160 86 ca 73 ba 98 19 f5 39 7d 01 ad 3b 08 5e 28 3b
       -0.00092998927 0.0004674911 0.0052797184 0.0025690813
000170 24 1e c4 3f 61 b5 88 3f 8f d4 94 be a4 1c 03 bb
       1.5321698 1.0680352 -0.2906842 -0.0020006085
000180 14 02 a3 bb 81 88 fc bb e9 72 39 bc ff 8b aa bb
       -0.004974613 -0.007706702 -0.011318901 -0.005204677
000190 29 ce 58 ba cd 4f 90 ba 69 5d 34 3a 73 6c 52 b9
       -0.00082704664 -0.0011010111 0.0006880374 -0.00020067561
0001a0 99 49 16 3a 6b 2f db 3a c2 8b 72 ba 24 a8 ba ba
       0.0005733013 0.0016722506 -0.0009252393 -0.0014240784
0001b0 6c aa da 3a 0d 1e f7 3b 4a 2e 92 b9 b7 ff d6 3a
       0.001668287 0.007541424 -0.00027881778 0.0016403113
0001c0 5a 03 01 bb c4 d0 92 3a 3c be 6f b9 94 3a a6 b8
       -0.0019685836 0.0011201133 -0.00022863684 -7.926408e-05
0001d0 6c f1 35 ba d0 ab 14 38 f1 d4 bf 38 99 26 86 40
       -0.0006940577 3.5445963e-05 9.147253e-05 4.1922116
0001e0 f6 ee bc bf f5 f0 73 bf f7 87 35 3f 12 a4 b9 ba
       -1.4760425 -0.95289546 0.7091059 -0.0014163277
0001f0 34 32 98 b9 87 82 17 c0 8b c7 96 3a b4 d3 8e ba
       -0.00029029103 -2.3673418 0.001150356 -0.0010896833
000200 0e 05 27 3a 3f a6 f8 ba 85 57 40 3a 1a c3 97 3e
       0.00063712976 -0.0018970444 0.000733726 0.29641038
000210 b1 6c 96 3e 91 3a 26 ba 79 2f 15 3b 77 d2 80 b8
       0.293798 -0.00063411245 0.0022763892 -6.142718e-05
000220 e0 9a 89 3a 74 92 bb c0 1a 2e 5f ba c8 b4 99 ba
       0.0010498427 -5.8616276 -0.00085136446 -0.0011726851
000230 04 8f a5 39 cc 2c 3c 3a 2a fa e4 3e 64 20 27 3f
       0.00031577807 0.0007178306 0.4472211 0.652838
000240 d6 b7 22 c0 93 0f 4d b8 f9 5a 81 3a 96 b0 9e 39
       -2.5424705 -4.8890313e-05 0.0009869031 0.00030267675
000250 32 1e 4f b9 23 1b df b6 93 94 a1 3a 1f 22 a0 39
       -0.00019752307 -6.649077e-06 0.0012327604 0.00030543
000260 b0 93 c2 3a 33 ee f5 b9 73 cd e7 b9 05 fc 9c 39
       0.001484504 -0.00046907514 -0.00044212825 0.00029942408
000270 96 73 d2 39 33 07 4e ba 09 15 8e ba 40 24 cf 3d
       0.0004014044 -0.0007859349 -0.0010840009 0.10114336
000280 37 34 2a ba 03 c1 53 b9 70 d6 ea 3a 44 f1 cc b8
       -0.0006492766 -0.0002019443 0.001791669 -9.772417e-05
000290 c8 21 3e 39 1d 11 b2 b9 e9 91 01 3a 2c 5d a5 ba
       0.00018132397 -0.00033963556 0.0004942702 -0.0012616268
0002a0 61 cd 44 3a 74 67 07 40 7b 01 8d bf b9 39 0d bf
       0.00075074105 2.1156893 -1.1016077 -0.551662
0002b0 cc e7 fc 3e e8 25 a1 39 12 fd ae b9 90 4a 4f c0
       0.49395597 0.00030736555 -0.00033376418 -3.238926
0002c0 25 24 6e 39 00 24 b1 3a e8 b3 6a b8 64 f8 65 ba
       0.00022710914 0.0013514757 -5.59575e-05 -0.000877267
0002d0 dc b6 a0 ba 75 7d 92 3f da 50 9a 3e a7 e1 77 3a
       -0.0012261528 1.1444536 0.3013981 0.0009455927
0002e0 a6 86 b9 39 ef 6b 00 ba 2a 36 b6 39 8a b3 58 c0
       0.0003538627 -0.0004898896 0.000347541 -3.3859582
0002f0 8a d2 c8 b9 e4 40 60 3a 8a 05 97 3a e1 f4 ec 39
       -0.00038303836 0.00085545913 0.0011522037 0.00045195877
000300 c7 e9 2e 3f 97 9a d3 3e 94 29 b5 bf 40 ab 1b 3b
       0.68325466 0.4132888 -1.4153314 0.0023753196
000310 df 07 07 ba 6e ab 67 3a 2b 4f 71 b9 99 1c 66 ba
       -0.0005151014 0.00088374957 -0.00023013043 -0.0008778065
000320 98 27 91 b9 4d 0e 8d b9 6b 0d 87 b8 ec db 53 3a
       -0.00027686055 -0.0002690427 -6.439801e-05 0.0008081782
000330 bf 59 9b b9 6b d1 02 bb ee 51 ff b9 e8 8a 6a 3a
       -0.0002963077 -0.0019961249 -0.00048698433 0.000894709
000340 ca 4e be 39 af 27 be 3d f2 94 76 ba 92 42 d8 ba
       0.00036298326 0.09284913 -0.000940635 -0.0016499332
000350 17 85 54 b9 12 61 47 3a 7a 3e e7 b9 d4 00 19 ba
       -0.00020267475 0.0007605712 -0.00044106302 -0.000583661
000360 0f 95 ab ba 57 98 ad 3a be 98 93 ba b4 d0 4f c0
       -0.0013090688 0.0013244253 -0.0011260731 -3.2471132
000370 a6 26 9d 3f 4f 77 66 3d 2e 4f 4e 3d d3 ee 6e 3a
       1.227742 0.056266125 0.05036848 0.0009114567
000380 75 de 4f 3a 2d 95 04 3f ff 26 49 ba 24 8f aa ba
       0.0007929572 0.51790124 -0.00076733524 -0.001301263
000390 56 b6 f8 b9 21 1c 99 b9 61 76 4e ba 58 bd e9 be
       -0.00047438097 -0.00029203392 -0.0007875916 -0.4565227
0003a0 1c 35 80 bf 55 84 ce b9 7e bd e5 ba d0 b4 98 39
       -1.0016208 -0.00039389977 -0.0017527787 0.00029126415
0003b0 08 f3 9e 37 0e 80 8a 40 80 c8 5b 3a f9 86 34 b9
       1.8948238e-05 4.3281317 0.0008384064 -0.00017216419
0003c0 55 6f 0b ba 2a 36 bb b9 25 8c 52 be 82 63 60 be
       -0.0005319019 -0.00035707775 -0.20561273 -0.21912959
0003d0 82 ce 0c 40 12 63 9e ba 44 3d 17 39 39 7e 74 ba
       2.2001042 -0.0012083969 0.00014423305 -0.000932667
0003e0 e0 87 63 b7 d8 f9 bf 3a e6 63 53 bc 0d a7 e6 3b
       -1.356189e-05 0.0014646603 -0.012902236 0.007038957
0003f0 b7 4f 13 3c f5 aa 6e 3c c3 8e 92 3c bd 2a 89 3c
       0.0089911735 0.0145671265 0.01789034 0.016744012

layer.2.bias f4 [50]
000000 8a 76 db 3e 6d 6b 1c 3e b9 15 aa be b9 35 e9 be
       0.42863876 0.15275355 -0.33219698 -0.455488
000010 53 fb d6 3e 2b f0 4e 40 48 1f 4c bf 67 16 3b bd
       0.4198862 3.2334087 -0.7973523 -0.04567566
000020 d1 2c 1b bf 7d 7a 60 40 ac 05 c3 3f 7e c3 d5 3f
       -0.6061526 3.507476 1.5236106 1.6700284
000030 26 94 8b bd d5 bf 79 3f 8d 42 9f 3c e2 62 40 bc
       -0.068153664 0.9755834 0.019440914 -0.0117423255
000040 54 2d de ba e4 f2 e6 3c 8b 82 18 40 81 93 03 be
       -0.0016950765 0.028191991 2.3829677 -0.12849237
000050 b8 df 63 3b d0 da e7 3b 14 3e 9a bc 13 7e 28 bb
       0.0034770798 0.007075645 -0.01882843 -0.0025709912
000060 e1 cb c3 3c f4 33 4d b9 86 1e 1b be 17 40 98 be
       0.023900928 -0.00019569678 -0.15148363 -0.29736397
000070 53 4a 48 3a 44 78 15 3f 5b 5c b4 be b0 5c 34 bb
       0.00076404697 0.58386636 -0.35226712 -0.0027521066
000080 35 2f af bf 9e 97 1e bf 2d 96 6c bd c6 0e 4c bf
       -1.3686281 -0.619501 -0.057760406 -0.7971004
000090 0f 2a 56 bd 0b 2e d9 bf c5 7d 19 3f 55 3c 87 ba
       -0.052286204 -1.6967176 0.59957534 -0.0010317663
0000a0 01 be 08 3d 76 0f 8d bc df e3 c1 40 bb d7 b9 3b
       0.033384327 -0.017219286 6.0590663 0.005671469
0000b0 68 38 9c 3b 0f 4f 33 3d 2b 69 25 c0 cc d8 24 be
       0.0047674663 0.043776568 -2.584544 -0.16098326
0000c0 be 70 93 3d 83 53 08 bb
       0.07199238 -0.002080173

layer.4.weight f4 [50, 50]
000000 42 05 16 3f d3 e5 dc 3d e8 35 89 be bd 86 1a bf
       0.5860177 0.10786023 -0.2679894 -0.60361844
000010 3f 99 13 3f 5e 55 27 3f b7 fa c9 bd ca 9c d5 3c
       0.5765571 0.65364635 -0.09862273 0.02607574
000020 c7 4a 2a be 9b 80 4f be 7e d2 a5 be 2d e5 89 be
       -0.16630088 -0.20263903 -0.32387155 -0.2693266
000030 66 c2 65 3b 6e 96 53 3e a5 a4 89 bb 9c a2 29 3f
       0.0035058497 0.20662853 -0.0042005354 0.6626375
000040 04 b7 b3 39 18 f1 15 3b 94 31 32 be 1e 9c 76 3e
       0.00034277898 0.0022879299 -0.17401725 0.24082991
000050 12 f9 13 38 73 30 c0 ba 98 bd b7 bd 9a 9e 3b b9
       3.5279496e-05 -0.0014662876 -0.08971709 -0.00017892793
000060 d4 29 30 bb a6 4e c8 3a 18 f0 12 3d 66 bb 92 be
       -0.00268804 0.0015282228 0.035873502 -0.286586
000070 36 74 99 39 1a 04 f6 3c 4e fe cf be 94 86 e3 ba
       0.00029269018 0.030031253 -0.40623707 -0.0017358833
000080 75 5e 1c 3d ac e2 b5 3e a3 91 39 bd 6b 30 60 be
       0.03817602 0.355245 -0.045304906 -0.2189347
000090 ea 1c 2f 3c 0a 7a 85 be 58 71 04 bf 9f 57 8b 3a
       0.010688046 -0.2606967 -0.5173545 0.0010630972
0000a0 ab b6 ae bb 67 e8 b8 39 50 dd d9 3e be 12 28 3a
       -0.0053318343 0.00035268368 0.4255166 0.0006411484
0000b0 3c d6 a1 ba 28 b3 93 bb 64 1b a0 3e 06 26 1e be
       -0.0012347172 -0.004507441 0.31270897 -0.15444192
0000c0 ff d3 9a bc 63 73 8e ba fa ca 31 3c da 4d 78 bd
       -0.018899916 -0.0010868128 0.010851616 -0.06062112
0000d0 e9 97 e5 3c f7 4b 4e 3f 85 36 63 bf ab 97 48 be
       0.028026538 0.80584663 -0.88755065 -0.19589107
0000e0 8e 63 69 3e 3e ba a9 3b b6 17 8a 3e 95 ca b7 3e
       0.22791883 0.0051796725 0.26971215 0.35896745
0000f0 26 fb 5a 3e 88 e4 cc 3e 30 d2 29 3b 57 56 8b bf
       0.21384868 0.40018106 0.0025912635 -1.0885724
000100 1e ee 87 bb 86 cd 16 bf b8 50 99 3a 01 30 91 bc
       -0.004148259 -0.58907354 0.001169703 -0.017723085
000110 41 dc ca 3e 6b 6d 15 3c 17 e0 e1 ba e5 38 ca ba
       0.39621165 0.009120326 -0.0017232922 -0.0015428333
000120 de 95 1f bf db c0 ba ba 59 05 0a bc d1 41 3d ba
       -0.62338054 -0.0014248149 -0.008424127 -0.0007219585
000130 8e 33 b8 bc bd c9 95 3f 9b c0 aa b8 8d a0 d9 bc
       -0.02248552 1.1702191 -8.142107e-05 -0.026565814
000140 6b 81 c6 3e 0d 95 f0 39 c4 ed 80 3d 3d 13 b4 be
       0.38770613 0.0004588742 0.0629535 -0.35170928
000150 d0 88 19 3d 58 d1 55 3f 28 04 a2 bc f8 b7 16 3f
       0.03748399 0.8352256 -0.019777372 0.58874464
000160 3c 09 bd 3e 61 b8 89 3a c8 60 bc 39 70 af d2 39
       0.36921108 0.001050722 0.00035930262 0.00040185032
000170 e1 3e 5a be c3 58 ae ba bc ed 9c b9 5b 74 01 bc
       -0.21313049 -0.00133016 -0.00029931765 -0.007901276
000180 53 07 26 3f 39 e7 5f be a4 75 cd 3b 03 4c f8 3a
       0.64854926 -0.21865548 0.0062701274 0.0018943552
000190 8e 16 9c 3e 71 bd bd 3d 9d 39 2e 3f 1c 11 0e 3f
       0.30485958 0.09264649 0.6805666 0.55494857
0001a0 ce d8 8f bf e6 df df be 91 22 83 bf c1 e1 8a 3e
       -1.1238039 -0.43725508 -1.0244924 0.27125362
0001b0 3f e5 c0 bf e5 88 f4 bd ba c1 e0 3d 20 68 df 3e
       -1.506996 -0.11940173 0.109744504 0.4363413
0001c0 1f 15 aa 3d 60 cc 22 bf ce d9 0a 3c f9 dc 92 3e
       0.0830481 -0.635931 0.00847478 0.28684214
0001d0 19 c2 b6 3b 3d ea 8b bd ab ff 24 3f 13 a7 8c 3e
       0.0055773375 -0.06831787 0.6445262 0.27471218
0001e0 e1 35 30 bc 70 df ab bb 38 fb 0c bd 26 42 86 3b
       -0.010755033 -0.0052451417 -0.03441927 0.004097241
0001f0 ee 86 42 bd ae 65 ad bb a9 2f 36 3e 23 0f 80 be
       -0.04749196 -0.005291662 0.17791618 -0.25011548
000200 f3 2d 1c bb 42 ea b7 bd e3 3e c9 3e db 3d 3e bd
       -0.0023831099 -0.08980228 0.3930579 -0.04644571
000210 fa 26 9d 3f e8 a8 81 3c 78 ee c6 be 38 a3 3c 3f
       1.227752 0.015827611 -0.38853812 0.7368655
000220 d7 68 35 bd 22 66 63 3e 3f c9 b9 3f ba fb 4f 3c
       -0.044289436 0.2220693 1.451454 0.012694294
000230 4b 0f 3c bd b5 37 8a 3b 22 84 41 bf e8 91 95 bb
       -0.045913022 0.0042180666 -0.75592244 -0.0045645125
000240 7d c4 f5 bb 3b 66 38 bd fc 31 68 3f ad bb e0 3e
       -0.00750023 -0.04501937 0.9070127 0.43893185
000250 a0 fc d3 bd 37 fc 53 3b d6 23 21 bf 79 e7 fe 3e
       -0.10350919 0.0032346377 -0.62945306 0.49785975
000260 60 f0 56 be 99 69 6a 3f df 77 e9 bf 7b 39 04 bf
       -0.20990133 0.9156738 -1.8239707 -0.5165021
000270 13 11 0e 3f b0 29 68 3d 00 11 96 3f a5 41 8a be
       0.55494803 0.05668038 1.1723938 -0.27003208
000280 71 c6 63 3e f9 18 0f 3f 92 88 16 3d 2a f9 20 bf
       0.22243668 0.5589748 0.036751337 -0.62880194
000290 98 b0 dd b9 fd 6b 8f 3c 7d da 0d 3b 72 f6 91 3d
       -0.00042283977 0.017507548 0.0021645122 0.07127084
0002a0 75 03 d0 3e 99 51 22 be b6 e1 8c 3a ba 54 3c bc
       0.40627638 -0.1585144 0.001074842 -0.01149481
0002b0 9f 63 7a 3e b3 38 0c 3b 1b 2d d3 3c 3b 69 08 3c
       0.24452065 0.00213961 0.025778344 0.00832587
0002c0 84 f4 15 3d b2 58 92 3e e2 c4 3b 3b 98 71 b5 be
       0.03661014 0.28583294 0.0028651287 -0.35438228
0002d0 18 60 8b 3f 53 55 dd 3c f6 f0 2e 3f 9d 68 d0 3e
       1.08887 0.027018225 0.6833643 0.40704814
0002e0 5d da 9b 3c c4 a2 33 be 0f 59 83 bd e2 ec db 3c
       0.019025022 -0.17542559 -0.06413471 0.026846353
0002f0 77 c5 dd bd c7 16 1b bc 91 10 53 3c 42 37 da 3b
       -0.10828679 -0.00946588 0.012882368 0.0066594193
000300 81 49 ae 3c 8d c9 0a 3a 7d 06 85 3b 61 88 3e bb
       0.021275284 0.00052943156 0.0040596114 -0.0029072987
000310 fc 9d 26 be 27 8d 95 bf 5a 5c 49 3c 65 34 3d 3b
       -0.16271204 -1.1683701 0.012290085 0.002887034
000320 fd dd 7b be ca e4 28 40 25 5b f3 be ea 22 b8 bf
       -0.245964 2.6389642 -0.47530475 -1.4385655
000330 06 11 16 bf 2a 85 a1 be 02 2a 3f 3f 58 a8 5d 40
       -0.58619726 -0.3154691 0.74673474 3.4634
000340 6c 9e cf 3e 82 bb 09 c0 95 6d 30 bf 6b ba 90 bf
       0.40550554 -2.1520696 -0.6891721 -1.130689
000350 53 6a 0c 3f 16 09 af be 6e 73 82 bf a2 a9 d5 be
       0.5484974 -0.3418662 -1.0191476 -0.41730982
000360 fe e9 39 ba 9f 72 04 bf 00 1d 4c 3f f0 62 af 3e
       -0.00070920575 -0.517374 0.7973175 0.3425517
000370 3c 58 18 bd 45 83 dd bc b3 cc 99 bf 2f 80 16 ba
       -0.03719352 -0.027040133 -1.2015594 -0.0005741147
000380 ce c7 87 be 2b 1e 99 3c 80 f8 b7 3f 0f bf 74 bf
       -0.26519626 0.018691143 1.4372711 -0.9560403
000390 1c e7 2a 3b 66 b2 e3 bd fd 3d 16 3f 5c 7e 13 3e
       0.0026077693 -0.11118011 0.58688337 0.14403671
0003a0 9c 83 b0 3e fc 52 73 be 14 2c 0f c0 83 ad a2 c0
       0.3447541 -0.23762125 -2.2370653 -5.0836806
0003b0 15 15 1f bf 6a fd 81 be 25 30 b3 3e fc 87 e1 bc
       -0.62141544 -0.25388652 0.3499767 -0.027530663
0003c0 b0 65 2d be 24 aa f7 3d 2c 17 56 bf cb d3 ad bc
       -0.16933322 0.120929986 -0.8362911 -0.021219155
0003d0 b2 88 b6 bc 85 19 43 bf 64 d7 11 c0 99 6b 33 bf
       -0.022281978 -0.76210815 -2.2787714 -0.70086056
0003e0 94 48 ab bf 52 30 ff 3c e2 e5 87 be 82 d1 cf 3f
       -1.3381524 0.03115097 -0.26542574 1.6235812
0003f0 eb cb 99 3e 5b 25 8f 3f a8 a7 8a bf ee 83 c8 3f
       0.3003839 1.1183275 -1.0832415 1.5665262

layer.4.bias f4 [50]
000000 07 41 3b 3e 91 5c 6a bf 17 d4 cb be 7c 63 07 3e
       0.18286525 -0.91547495 -0.3981025 0.13221544
000010 92 4e d9 bc 82 9a 9f 3f 1e b9 a8 be 14 34 9a 3e
       -0.026526723 1.2469027 -0.32953733 0.30117857
000020 47 0e 0d bf 36 3d 28 bf 4f 3a 55 3e af 5e d9 be
       -0.5509991 -0.657184 0.20823024 -0.4245505
000030 d0 f3 9d bd eb 52 75 bd 31 38 14 be ff a4 e9 be
       -0.07712519 -0.05989353 -0.1447456 -0.45633695
000040 28 c2 f2 3e 53 8d e6 3e 32 97 83 3e 27 0d 0e be
       0.47413754 0.45029697 0.2570129 -0.13872205
000050 9d 24 56 3f 9c 59 03 3f 7c ec 46 3f f1 52 12 bf
       0.8364962 0.5130861 0.77704597 -0.5715781
000060 aa 04 97 3e cd a9 51 3e 99 02 5e 3f ca 70 01 3c
       0.29495746 0.2047493 0.86722714 0.007900426
000070 f5 3a 1c bf df 1e e7 3e cf a8 ae bd e2 e7 76 bf
       -0.6102746 0.4514074 -0.085282914 -0.96447575
000080 d9 b1 21 bf 80 08 0b be 4f 6d 3a 3f 2d d9 45 3e
       -0.63162 -0.13577461 0.7282304 0.19321127
000090 87 8d 18 3f 6f 20 4d bf 2c 17 90 3d ca bf 28 be
       0.59590954 -0.80127615 0.0703567 -0.16479412
0000a0 c4 40 07 3e 8a 72 35 be 36 34 a4 3e a8 e6 94 3d
       0.132083 -0.17719474 0.32071084 0.07270557
0000b0 08 13 3e be b1 dc b8 3d 17 08 04 be 9e 1f f4 be
       -0.18561947 0.090264685 -0.12893711 -0.47680372
0000c0 fb b0 01 c0 90 75 04 bf
       -2.026427 -0.51741886

layer.6.weight f4 [50, 50]
000000 28 1c 1d c0 ca 8f c9 3e 81 54 7e 3e a5 0d cf bd
       -2.4548435 0.39367515 0.24836923 -0.10110024
000010 b8 6c 86 bf ad b8 8b be d0 c7 e6 bd a0 ba a1 be
       -1.0501928 -0.27289334 -0.1126858 -0.31587696
000020 40 23 ee bc 08 62 21 3f 6a 5a 5a bf 0d ba c8 bd
       -0.029069543 0.6304021 -0.8529421 -0.09801111
000030 41 d6 04 bf 31 6d 19 3f bd c3 cc bf 50 3e 6e bd
       -0.51889426 0.5993224 -1.5997235 -0.058164895
000040 4c 51 83 bf 55 e1 da 3e dd ce 7d 3e c3 fb 1e bd
       -1.0259185 0.4275004 0.24785943 -0.038814317
000050 f4 15 96 3e cc da 0d 3e 5a 6e 5f be bb 47 d7 be
       0.29313624 0.13852996 -0.2181944 -0.42046914
000060 fa 3c 0b bf 16 6e ec be 7a f8 84 bf e7 0b b0 be
       -0.5438992 -0.4617774 -1.0388329 -0.3438408
000070 4c 93 7e 3f 57 e9 c6 bd 4a 83 29 bf 9e 96 70 3f
       0.9944351 -0.09712475 -0.66215956 0.93979824
000080 c1 3c 9c 3f 85 c9 67 bc bd 05 29 be 75 b6 4f 3e
       1.2206041 -0.014147167 -0.16506095 0.20284446
000090 e1 84 91 be 06 18 e3 3e 54 8b 18 be 04 9d 6c be
       -0.2842169 0.44354266 -0.148969 -0.23106772
0000a0 c5 fd 1c 3f fe 63 7c 3e 93 f2 97 3f 87 b4 73 bd
       0.6132472 0.24647519 1.1870903 -0.059498336
0000b0 88 92 6f 3d 88 5f 17 bd d7 61 de 3d e9 8b 19 bf
       0.058489352 -0.03695634 0.10858505 -0.5997911
0000c0 7b 1d 03 bf cf f0 1f 3f 63 47 e7 3e 0d 67 14 c0
       -0.5121686 0.6247682 0.4517165 -2.3187897
0000d0 b4 c7 4e 3e ae aa ab be 51 26 58 be b7 15 2c bf
       0.20193368 -0.33528656 -0.21108367 -0.67220634
0000e0 b6 5a 6d be 52 79 83 3d f5 29 8b 3d ee 70 52 3e
       -0.23179135 0.064196244 0.06795112 0.20550892
0000f0 9f 1a a6 bd 21 3e 18 bf b4 9a aa 3e 31 1a 6d be
       -0.08110546 -0.594698 0.33321154 -0.23154522
000100 e5 62 1e 3e dd e4 fb 3d 74 b9 af bd c1 8e 9a 3d
       0.15467413 0.122995116 -0.08580294 0.075467594
000110 6b 80 0a bf 10 48 96 bc f2 af 86 3a 4b e5 d8 3e
       -0.541022 -0.018344909 0.0010275824 0.42362437
000120 76 b5 c7 3d f7 0b b4 be c2 c8 34 3e 67 a7 dc 3d
       0.09751408 -0.35165378 0.17654708 0.10774117
000130 41 dc 3a bf 96 29 7c be 42 12 1f bf ec c8 1a 3f
       -0.7299233 -0.24625239 -0.62137234 0.6046283
000140 56 10 81 3f 69 3d c1 3f fd 45 5f bf bb bc 90 3e
       1.008311 1.5096866 -0.8721617 0.2826899
000150 c0 8a 5f 3e e3 47 4f 3e 22 98 aa be 5f 30 91 bc
       0.21830273 0.20242266 -0.33319193 -0.01772326
000160 68 7e ac 3d df bc 09 3e f2 e4 a8 be ea d9 51 3e
       0.084225476 0.13450955 -0.3298717 0.20493284
000170 db b0 12 be a3 74 dc be 38 6c 6d 3f 03 23 80 3e
       -0.14325278 -0.43057737 0.92743254 0.25026712
000180 8a 45 c9 bd ed 3c e0 3e 0f 5c cf 3e 70 b6 9b 3f
       -0.09827717 0.43796483 0.40499923 1.216505
000190 fa 4b aa 3e 09 5e 39 40 ff 8e 33 bf 06 3f 6c 3e
       0.3326109 2.8963645 -0.7014007 0.23070917
0001a0 f7 bf a8 be 6e 39 71 40 dd 6e 75 3e dc a4 62 3e
       -0.32958958 3.7691302 0.23968072 0.22133201
0001b0 84 9b 2b bf 46 96 6a 3e 71 6a f9 be 88 02 87 be
       -0.67034173 0.22908887 -0.4871402 -0.2636912
0001c0 9b 37 24 3f ef 65 0a bf 03 20 48 bf 38 93 5d be
       0.6414735 -0.5406179 -0.78173846 -0.21638191
0001d0 b3 a8 f1 be a2 33 a4 3e 81 60 b6 3c 9d 2b bb 3e
       -0.4719902 0.32070643 0.022262814 0.36556712
0001e0 a0 ca 91 bf 6e 66 15 39 80 5c 60 bf 34 95 eb bc
       -1.1389961 0.00014247905 -0.87641144 -0.028757669
0001f0 72 34 f8 be ce ff c4 bd 0b 94 8b 3f 0e 4b d6 3d
       -0.48477513 -0.09619103 1.0904554 0.10463534
000200 3d 57 f7 3e 85 db 2d 3f 61 09 9c bd 90 b8 33 bf
       0.48308745 0.67913085 -0.076189764 -0.70203495
000210 3f 2d 44 3e 56 89 fe 3c cc b7 b1 3e dd 04 ca bf
       0.19157885 0.031071346 0.34710538 -1.5782734
000220 b1 43 81 3e c6 f4 43 bd a5 7f 10 bf 00 77 24 bd
       0.25246957 -0.047840856 -0.5644477 -0.04015255
000230 c7 21 ad be 3e 2c 40 bf e3 1f af 3e 68 a1 d4 3e
       -0.33814833 -0.7506751 0.34204015 0.41529393
000240 7f 9d e4 be ac cb 5e be 5d 39 4f 3e 3f 04 68 3f
       -0.4465141 -0.21757382 0.20236726 0.9063148
000250 5a 9a 0e be a0 68 8d bf a2 f3 2d 3f ec 91 71 be
       -0.13926068 -1.1047554 0.6794988 -0.23590821
000260 6c 14 cc 3e 79 33 6a 3e 6f 99 c6 be d9 32 54 3f
       0.3985933 0.22871198 -0.38788936 0.8289009
000270 0e 5e 92 bd d0 16 94 3e 27 12 03 bc 84 2c 85 3f
       -0.07146846 0.28923655 -0.007999933 1.040421
000280 39 5d 9d 3e 47 63 34 bf 77 fd c4 3e fc 46 c5 be
       0.30735186 -0.70463985 0.38474628 -0.3853072
000290 55 1e 08 be 8e cd 8d be 45 85 f3 be 99 b6 22 3e
       -0.13292821 -0.27695888 -0.47562614 0.15889968
0002a0 1e 0a de 3e ee 4c 37 3e f4 5e 1b bf 9a a9 d8 3e
       0.43367094 0.1790044 -0.6069176 0.42316896
0002b0 96 13 15 3d 98 9a df be 2f e9 52 3f 8e 31 04 3e
       0.03639563 -0.43672633 0.8238706 0.12909529
0002c0 c7 eb c5 be c9 73 53 bf 61 63 01 be 54 6a f7 be
       -0.38656446 -0.8259855 -0.12635566 -0.4832331
0002d0 ac 4d f9 be 2c eb 26 bf c5 7c 9f 3e f8 71 a2 3c
       -0.4869207 -0.65202594 0.3114988 0.019829735
0002e0 98 3a 72 bf 4f 6a 75 3e 89 97 47 bf b2 92 a5 bc
       -0.94620657 0.23966335 -0.779656 -0.020211551
0002f0 e9 1d 44 be 44 fb 17 bf 50 72 55 3d 17 35 70 be
       -0.19152035 -0.59367776 0.05211097 -0.23457752
000300 55 74 45 3e 5a 90 a9 be f2 3f 49 3c b6 60 09 3f
       0.19282658 -0.33117944 0.012283312 0.53663194
000310 e3 e5 e4 3e bd b3 b6 3e a1 9d d3 3d a9 6a 37 bf
       0.4470664 0.35684004 0.103328 -0.71647125
000320 7a 8d 73 3e c8 c2 0f 40 0c 00 64 be 92 c0 87 3e
       0.23784438 2.2462635 -0.22265643 0.26514107
000330 6d 6e f8 be ef ce c3 3f 79 06 64 3e b9 b2 14 bf
       -0.48521748 1.5297526 0.22268094 -0.5808521
000340 3c f6 9a 3e 21 b2 d6 3e ec a6 44 be 4d e1 b4 bd
       0.30265987 0.41932777 -0.192043 -0.08832035
000350 41 47 cf 3e 2d 0b 94 bd 07 3f aa be 2c e3 98 bd
       0.4048405 -0.07228694 -0.3325121 -0.074652046
000360 73 83 19 bf 86 12 2d bd 0e c5 cd 3e e0 e0 91 be
       -0.599662 -0.042253993 0.40189403 -0.28491879
000370 5f ec b4 bd f9 4b 2d bf 93 bd 34 be 7b 38 69 bd
       -0.08834147 -0.6769405 -0.17650442 -0.05693863
000380 40 a8 0e 3f 6d 32 30 be 86 64 16 3f 60 77 a4 be
       0.5572548 -0.17206736 0.58747137 -0.32122326
000390 d9 96 b4 bd 14 a6 05 bf b1 6c 3a bf d7 05 83 be
       -0.088178344 -0.5220654 -0.728221 -0.25590393
0003a0 5d 04 04 3f 78 fd 86 3e 0b 02 44 be a6 52 12 bf
       0.5156916 0.26365256 -0.19141404 -0.5715736
0003b0 4d e0 59 be a2 e0 94 3d 7c db 37 bf 73 49 2d be
       -0.2127697 0.07269408 -0.7181928 -0.1692255
0003c0 cb 27 aa 3e 34 ac cb bd 47 32 a3 bc d1 92 45 bc
       0.33233485 -0.099449545 -0.019921435 -0.01205893
0003d0 1e 54 16 c0 1b dc a1 3e 41 71 35 be 5c 1f 08 bf
       -2.348884 0.3161324 -0.17718984 -0.5317285
0003e0 8b a4 78 3f 89 de ba bf 5c d2 49 3f a3 39 68 3e
       0.9712607 -1.4599162 0.7883661 0.22678237
0003f0 95 0b 4b 3e 88 a1 ed 3e a4 66 a5 3f 16 98 97 be
       0.19828637 0.464123 1.2921948 -0.2960822

layer.6.bias f4 [50]
000000 9c ea 1f 3f 1e 8f 88 bd aa 6f 4b be e8 51 e6 be
       0.6246736 -0.066679224 -0.19866815 -0.44984365
000010 ea 6e de be 78 55 05 bf 38 8e a6 bd 27 4b 38 3f
       -0.43443996 -0.5208354 -0.08132595 0.71989673
000020 fe 1e 2a be ce c4 13 3f ff e0 36 be d9 7c e3 be
       -0.16613385 0.57722175 -0.17859267 -0.4443119
000030 98 28 e0 bd 32 b1 06 bf f8 15 12 be e1 96 09 3f
       -0.10945243 -0.5261413 -0.14266193 0.5374585
000040 10 4a 88 bf 73 8f f7 3d b2 21 00 bf db 6f 28 3f
       -1.0647602 0.12087908 -0.50051415 0.6579568
000050 2c 86 fe be 8c da e6 3f f0 bd 70 3f c8 8f 52 bf
       -0.4971174 1.8035445 0.9403982 -0.8225064
000060 32 6e f2 3c c8 6b 94 bd d9 99 86 be 17 a6 a2 3e
       0.02959356 -0.0724712 -0.2628925 0.31767341
000070 e7 ae c1 bd 93 ba ae 3c 3b 35 12 be 1a 30 8f be
       -0.09457188 0.0213292 -0.14278118 -0.27966386
000080 16 20 c2 3e 49 92 a3 3e 4b ea 32 3f c2 18 02 3f
       0.37915105 0.31947544 0.6988875 0.5081903
000090 94 f8 6a bf 4a 6e 54 bf 1e 93 0e 3e d3 df 16 bf
       -0.9178555 -0.8298079 0.13923308 -0.5893528
0000a0 ac 77 21 3e d5 90 65 3e eb 0c 83 be 6d b4 66 be
       0.15768307 0.2241853 -0.25595793 -0.22529764
0000b0 4f 7e a8 bd fa 05 e6 3d 90 a1 b8 be 9c 91 05 3f
       -0.082272165 0.11231609 -0.36060762 0.5217531
0000c0 bf 98 80 be 4b ca 41 3f
       -0.25116536 0.756993

layer.8.weight f4 [1, 50]
000000 3a e0 54 43 ad fd ed c2 50 94 ff 42 2a 95 44 43
       212.87589 -118.99546 127.78967 196.58267
000010 d9 1e 11 43 38 8a 78 c3 f6 ca 19 43 55 4b 67 c3
       145.1205 -248.53992 153.79282 -231.29427
000020 f4 de 3a 43 16 e6 3e c3 3f 6b f9 42 00 21 59 43
       186.87091 -190.89877 124.709465 217.1289
000030 22 c9 60 43 5c c1 fe 42 f9 29 32 43 5f 91 f2 c2
       224.78568 127.377655 178.16396 -121.28393
000040 f7 46 03 43 cc dc 29 43 4a e8 5a 43 f2 5c 3a c3
       131.2772 169.86249 218.90738 -186.36307
000050 f9 65 33 43 57 7d 63 43 df 4b 40 c3 b2 ed 45 43
       179.39833 227.48961 -192.29637 197.9285
000060 58 a4 fd 42 3a dd 3a 43 90 aa 31 43 f3 93 06 c3
       126.820984 186.86417 177.66626 -134.57793
000070 ce 3e 49 c3 be 57 00 43 d3 2f 3c 43 6a 18 77 c3
       -201.24533 128.34274 188.18681 -247.09537
000080 20 b4 f8 c2 f1 f7 52 c3 88 c7 3d c3 1d 32 36 c3
       -124.35181 -210.96852 -189.77942 -182.19576
000090 3a 3f 7c 43 8d a9 4f 43 ec eb 40 c3 2e 3d 06 43
       252.24698 207.66231 -192.92157 134.23898
0000a0 db cb 0a c3 a2 6b 77 43 7a 6f 33 c3 26 8a 3c 43
       -138.79631 247.42044 -179.43546 188.53964
0000b0 76 42 ae 42 62 c5 31 43 28 e7 45 43 00 5e 2d c3
       87.12981 177.77103 197.90295 -173.36719
0000c0 76 d8 08 43 42 41 78 c3
       136.84555 -248.25491
