1D-CDD(1e-6)/Best_Shockwave.pt (torch, 35196 bytes, 9 tensors)

layer.0.weight f4 [50, 1]
-0.3909516 -0.06514175 60.712746 0.67507154 -0.07081775 -0.13841903 -0.48098317 -0.32937282
0.124532335 -0.029779967 -0.122340426 -0.16726422 0.042939115 -0.18794352 -0.19879772 0.6427089
-0.4524446 -0.44706935 -0.34584108 -0.18657397 0.08145269 -0.45333076 -0.42496794 5.3986497
41.601982 0.5346699 -0.05230483 43.441742 0.079097345 0.64352316 -0.37733445 0.09584218
-0.28790912 -0.24020247 0.0634931 -0.034696743 11.599761 0.6292054 0.47996348 -0.006322742
0.100362055 -0.15202604 -0.07043262 0.10974568 -0.32779554 -0.20711856 0.07295593 0.012561322
0.49271092 -0.36273098
00000000: cf2a c8be 0a69 85bd dad9 7242 7dd1 2c3f
00000010: e608 91bd b8bd 0dbe 6d43 f6be 8ea3 a8be
00000020: cf0a ff3d 1ef5 f3bc 9e8d fabd 5047 2bbe
00000030: ede0 2f3d 4474 40be a191 4bbe 9288 243f
00000040: d2a6 e7be 46e6 e4be 1512 b1be 3f0d 3fbe
00000050: abd0 a63d f81a e8be 6695 d9be bdc1 ac40
00000060: 6e68 2642 20e0 083f 973d 56bd 58c4 2d42
00000070: cafd a13d efbd 243f fb31 c1be e848 c43d
00000080: d368 93be a3f7 75be ac08 823d 2c1e 0ebd
00000090: 9f98 3941 9b13 213f c6bd f53e 012f cfbb
000000a0: 9f8a cd3d b7ac 1bbe fa3e 90bd 58c2 e03d
000000b0: d1d4 a7be e316 54be eb69 953d 01ce 4d3c
000000c0: 9b44 fc3e e0b7 b9be

layer.0.bias f4 [50]
0.059324577 -0.007578446 0.118250616 -0.039704844 0.04853236 0.0017535518 -0.02418566 -0.080208115
0.007377728 0.041323062 0.12521572 0.31032708 -0.024237888 -0.15104157 -0.032574974 -0.0325843
0.017239494 0.048084144 -0.009902422 -0.007438397 -0.038568124 0.014726038 -0.009827438 0.111212775
0.1018446 0.027138365 0.03416025 0.15450135 -0.07499733 -0.09667515 0.08260842 -0.07661714
-0.0008615412 0.014276232 -0.08557908 0.041836917 -0.07081127 -0.037651118 -0.023992129 -0.007814375
-0.027143123 0.013100215 0.099018864 -0.029291345 -0.024551202 0.048233647 0.00857448 0.03458465
-0.012569318 0.010089937
00000000: 54fe 723d 9d54 f8bb 612d f23d 8ca1 22bd
00000010: dec9 463d 6fd7 e53a 0121 c6bc 2744 a4bd
00000020: dec0 f13b 5f42 293d 8d38 003e 31e3 9e3e
00000030: 898e c6bc a4aa 1abe 566d 05bd 1d77 05bd
00000040: d739 8d3c e1f3 443d c53d 22bc ccbd f3bb
00000050: 9cf9 1dbd 7b45 713c 4303 21bc 86c3 e33d
00000060: e793 d03d 4751 de3c 9eeb 0b3d 9a35 1e3e
00000070: 3398 99bd 9ffd c5bd 9a2e a93d 72e9 9cbd
00000080: 0dd9 61ba dbe6 693c 1644 afbd 305d 2b3d
00000090: 8005 91bd 0f38 1abd 248b c4bc dd07 00bc
000000a0: 415b debc 49a2 563c 67ca ca3d 67f4 efbc
000000b0: 9a1f c9bc a590 453d fa7b 0c3c a2a8 0d3d
000000c0: 8aef 4dbc 4350 253c

layer.2.weight f4 [50, 50]
0.37755737 0.04111823 -0.4778909 0.5243698 0.1651003 0.083290376 -0.0016618699 0.26073506
-0.32685775 -0.003950246 -0.23943785 0.22182167 0.21575461 0.16695549 0.02029365 0.05529712
0.43155956 0.22327773 0.29024494 -0.24505185 -0.10208383 0.0024722961 0.35367346 -0.024541248
-0.05325008 -0.07235343 0.43557736 -0.7245605 0.14823875 0.0644967 0.21543713 0.104467586
-0.039154205 0.40255597 -0.08260991 -0.1908998 0.062096395 -0.31270385 0.11603979 0.30471367
-0.1378188 0.3779648 -0.22481784 0.2789544 -0.10120276 -0.0066437647 -0.05985952 0.20408896
-0.6082802 0.21831784 -0.17440096 -0.037079297 -0.14623192 -0.15655541 -0.11021422 -0.22564821
-0.00846939 -0.20295477 0.37351742 -0.17737663 -0.018568842 -0.013391223 -0.10500809 -0.04139999
-0.0048801037 0.1116026 -0.43271443 -0.176573 -0.41248217 0.12243062 0.21478221 -0.107079126
-0.36239046 -0.18120684 0.020498332 0.21293402 -0.10075709 -0.35787058 0.25890508 -0.24560381
-0.027696911 0.09475154 0.14749698 -0.15068972 -0.23906247 0.057355374 -0.23270938 0.09748152
0.29941615 0.12198022 0.17555745 -0.14198793 -0.32001677 0.20154871 -0.25325775 -0.3007794
0.07636456 -0.07600345 0.30495527 -0.09981428 0.39935687 -0.37068406 5.992295 -0.09536045
0.48832527 -0.37306896 0.12738198 0.5605181 1.0060269 -2.1324105 -1.0738032 -0.5531245
-0.36868975 0.15169673 -0.28237537 0.39833486 0.011799994 1.013924 -0.15049347 1.2811259
1.1079308 0.41154233 0.39671516 1.0197904 3.6427858 -0.66170925 -0.21658136 1.3359854
0.16171682 0.2982534 0.019942617 -0.1617423 1.9941826 0.16109437 -1.3525498 -0.6990335
1.4167955 0.7997961 0.2705247 -0.965956 -0.2888379 0.9749455 0.7611554 -0.47481933
-0.22286753 0.04709269 1.93843 1.3494123 -0.12584384 0.6690484 -0.55391675 -0.15018587
-0.25018522 0.019650903 -0.020398736 0.18108718 -0.16143984 -0.5851919 0.03507874 0.14177856
0.05798827 0.050344434 -0.12794441 0.07018506 -0.33424115 -0.07838162 -0.40753523 -0.16288692
-0.5954252 -0.11366358 -0.19551463 -0.5148648 -0.70407456 -0.0042529046 -0.21113078 0.011284016
0.24833955 -0.5345811 -0.18126443 -0.16223039 -0.46740454 -0.042344652 -0.41424105 0.16977133
0.07614206 -0.056748252 -0.07748275 -0.08276834 0.07323439 0.13868003 -0.19575392 0.19391085
0.25069603 -0.19373535 -0.16333993 0.3503399 -0.17117612 -0.042671744 0.010077454 -0.5915155
-0.39959356 0.43258622 1.0361097 -0.1783665 0.4634724 -0.19069493 0.32987747 0.42052367
0.29754844 0.05673268 -0.101194344 -0.18050568 -0.46344805 0.03916372 0.06978011 0.029569846
-0.032226678 -0.13849814 0.27163517 -0.16182995 0.058770962 0.020700794 0.09115238 -0.034311842
0.32487622 0.4716964 -0.23834923 0.48246515 0.3962095 -0.38150656 -0.19926 0.50358266
0.5063048 -0.017957635 -0.28977555 -0.14662305 0.017721834 0.4567584 0.6342242 -0.30875516
-0.14218621 -0.00072590314 -0.34116864 -0.22415714 0.2699114 -0.20658608 0.574135 -0.0011016275
0.43109122 0.37092525 0.38188747 0.45711356 -1.6020794 -0.8958773 -0.40552258 0.48508304
00000000: 334f c13e 976b 283d 1eae f4be 193d 063f
00000010: 0e10 293e 2594 aa3d 1ad3 d9ba 117f 853e
00000020: e659 a7be 1171 81bb 322f 75be 3825 633e
00000030: c7ee 5c3e 61f6 2a3e de3e a63c 3c7f 623d
00000040: 60f5 dc3e eba2 643e fc9a 943e dfee 7abe
00000050: 5411 d1bd 3f06 223b b014 b53e ba0a c9bc
00000060: c21c 5abd 092e 94bd ff03 df3e cc7c 39bf
00000070: e6cb 173e d916 843d 8d9b 5c3e 1af3 d53d
00000080: 2960 20bd d11b ce3e 622f a9bd 3d7b 43be
00000090: ca58 7e3d b81a a0be 45a6 ed3d 6e03 9c3e
000000a0: 5f20 0dbe 9a84 c13e a636 66be 1cd3 8e3e
000000b0: 6543 cfbd f0b3 d9bb 422f 75bd b2fc 503e
000000c0: 40b8 1bbf b68e 5f3e 2a96 32be 76e0 17bd
000000d0: d2bd 15be 1050 20be feb7 e1bd 5310 67be
000000e0: 32c3 0abc 60d3 4fbe ad3d bf3e 38a2 35be
000000f0: af1d 98bc dc66 5bbc 7b0e d7bd 0993 29bd
00000100: 47e9 9fbb e78f e43d bf8c ddbe 8dcf 34be
00000110: dd30 d3be e8bc fa3d deef 5b3e 4d4c dbbd
00000120: 3e8b b9be 498e 39be 1eec a73c 600b 5a3e
00000130: bc59 cebd d03a b7be 358f 843e 917f 7bbe
00000140: a2e4 e2bc 180d c23d 7309 173e 684e 1abe
00000150: cbcc 74be 78ed 6a3d 5e4b 6ebe 64a4 c73d
00000160: 134d 993e c4d0 f93d 55c5 333e 4965 11be
00000170: 3dd9 a3be c962 4e3e 00ab 81be c2ff 99be
00000180: 0665 9c3d b2a7 9bbd 1923 9c3e 6e6b ccbd
00000190: 8178 cc3e 4dca bdbe e1c0 bf40 574c c3bd
000001a0: c505 fa3e e502 bfbe 6c70 023e 1d7e 0f3f
000001b0: 7dc5 803f 6a79 08c0 6272 89bf 9199 0dbf
000001c0: e7c4 bcbe 6356 1b3e 8193 90be 8cf2 cb3e
000001d0: c354 413c 43c8 813f f61a 1abe effb a33f
000001e0: add0 8d3f adb5 d23e 401e cb3e 7e88 823f
000001f0: 6723 6940 c765 29bf 81c7 5dbe 9201 ab3f
00000200: 1899 253e abb4 983e b35e a33c c69f 25be
00000210: 6041 ff3f ecf5 243e 5a20 adbf dcf3 32bf
00000220: 8e59 b53f 70bf 4c3f 3782 8a3e e448 77bf
00000230: 90e2 93be 0796 793f 15db 423f 851b f3be
00000240: 6337 64be 44e4 403d 791e f83f 8bb9 ac3f
00000250: 35dd 00be c246 2b3f 7dcd 0dbf 53ca 19be
00000260: 4718 80be eefa a03c 401b a7bc eb6e 393e
00000270: 7c50 25be 23cf 15bf baae 0f3d 662e 113e
00000280: 1c85 6d3d f735 4e3d dc03 03be 2fbd 8f3d
00000290: a821 abbe 8b86 a0bd 75a8 d0be d4cb 26be
000002a0: c96d 18bf 73c8 e8bd fd34 48be 2ece 03bf
000002b0: 3b3e 34bf f35b 8bbb ab32 58be 98e0 383c
000002c0: b94c 7e3e 4fda 08bf 629d 39be b91f 26be
000002d0: a64f efbe 9671 2dbd 6717 d4be 89d8 2d3e
000002e0: 5ef0 9b3d db70 68bd 47af 9ebd 7382 a9bd
000002f0: e9fb 953d 2302 0e3e b773 48be 9190 463e
00000300: 3b5b 803e 8f62 46be 9542 27be c05f b33e
00000310: cb48 2fbe 91c8 2ebd e81b 253c 8f6d 17bf
00000320: 8797 ccbe f17b dd3e 3e9f 843f b5a5 36be
00000330: 414c ed3e 8845 43be b3e5 a83e e14e d73e
00000340: 4558 983e 8760 683d fb3e cfbd 7bd6 38be
00000350: 1049 edbe 236a 203d e0e8 8e3d 763c f23c
00000360: 1f00 04bd 75d2 0dbe c413 8b3e c0b6 25be
00000370: d2b9 703d b694 a93c 19ae ba3d 938a 0cbd
00000380: 2d56 a63e 3182 f13e d211 74be ac05 f73e
00000390: f9db ca3e d454 c3be d00a 4cbe cbea 003f
000003a0: 319d 013f e41b 93bc 765d 94be 5a24 16be
000003b0: 612d 913c 3ddc e93e 845c 223f 2815 9ebe
000003c0: 4399 11be 894a 3eba a8ad aebe 7389 65be
000003d0: d431 8a3e 4d8b 53be 83fa 123f 7c64 90ba
000003e0: fdb7 dc3e eae9 bd3e c186 c33e ca0a ea3e
000003f0: f010 cdbf 3758 65bf a8a0 cfbe ce5c f83e

layer.2.bias f4 [50]
0.16191371 0.057976898 -0.5068606 -0.034672875 0.0048708864 -0.13105442 0.13036622 0.122951284
0.09841261 0.014110809 -1.347178 0.13829163 0.78706867 -0.5011322 -0.039468475 0.05284023
0.19359052 0.13128087 -0.046501543 0.58390033 0.8678228 1.1198386 0.05326939 0.11817926
3.5795503 -0.9159183 -0.071567 0.09731652 -0.086082704 0.10913439 -0.1381605 -0.11915373
0.048169114 0.11142506 -0.015098554 0.47612983 0.18421188 -1.2580701 0.037016325 0.3761912
0.07285771 0.010456021 1.2472435 -0.034833375 0.03359464 0.041095145 0.036665305 0.11244279
-0.46490327 0.040414307
00000000: b5cc 253e 2f79 6d3d 9ec1 01bf 2505 0ebd
00000010: f59b 9f3b 2133 06be b97e 053e e2cd fb3d
00000020: 8d8c c93d 0631 673c 5470 acbf 529c 0d3e
00000030: 557d 493f 334a 00bf b2a9 21bd ff6e 583d
00000040: 983c 463e 7e6e 063e 6778 3ebd 7e7a 153f
00000050: a329 5e3f df56 8f3f 0131 5a3d f807 f23d
00000060: 5a17 6540 9f79 6abf b891 92bd e24d c73d
00000070: 214c b0bd da81 df3d f279 0dbe df06 f4bd
00000080: fa4c 453d d232 e43d ed5f 77bc 4ac7 f33e
00000090: 0aa2 3c3e 7108 a1bf 6e9e 173d 229c c03e
000000a0: 6c36 953d bb4f 2b3c ada5 9f3f 71ad 0ebd
000000b0: 899a 093d 6253 283d 5c2e 163d 6848 e63d
000000c0: cd07 eebe 7989 253d

layer.4.weight f4 [50, 50]
1.3317893 0.12926064 -0.5555195 0.7396704 -0.60135746 0.62605405 -0.27098402 0.56623924
-0.2681427 0.12337122 -0.4713998 -0.12668641 1.2796941 -1.3598053 0.85514 -0.46217892
0.78976035 -0.53071195 0.63512087 0.86563545 1.1954191 2.1702511 -0.07681418 0.4292118
-0.3746098 -1.3279428 1.067462 -1.1412153 -0.2720054 1.7008361 0.02982414 -0.98902935
0.012493763 0.48316082 1.0149021 1.7875508 2.112541 -1.108614 -0.22951984 1.3424572
-0.25821152 -0.94348663 0.17125739 -0.26576698 -0.16958064 -0.87084997 -0.20804566 1.1199883
-1.821872 0.17627028 -0.8710411 2.8390782 -0.8334717 4.604792 0.35998383 1.5210696
-1.6622235 0.46540827 0.85014975 -0.4126608 -2.3446078 -0.3470656 0.4013862 -0.30178988
-1.2263248 0.35563457 0.5203553 0.40180174 1.0152975 -0.61557096 1.7587675 0.9793606
0.25654775 0.7289634 -1.8383961 -0.73808056 -1.031795 0.7711609 -0.75668436 -0.07579864
0.82706934 -1.2112263 -0.03576471 0.83697176 0.28185079 -0.7041078 -0.9714794 -2.5764625
0.5326343 0.047829796 -1.0147209 -0.7336552 2.344723 0.15960947 0.32536674 -1.4447094
-0.16553874 1.0770903 -0.22811076 -1.0304805 1.3059534 -0.16466933 -0.6919112 2.5152562
-1.493341 -0.55673283 -1.1884164 1.262118 0.83881307 -0.09515767 -2.146677 -0.8870689
2.2856183 0.19090538 0.88435346 0.51751924 -0.34455642 -0.18072215 -0.108211055 1.4615682
1.3883026 0.9759301 2.618357 0.23175524 2.1258576 0.40603647 0.53210986 -1.0045406
1.6774685 -0.24878135 1.0276749 -0.16544388 2.35346 -2.0622535 0.788363 0.10884724
0.9719757 -4.3411646 -1.4997916 1.5619867 0.92638934 -0.8277339 4.101882 0.5210337
-0.13120086 -0.37228683 2.1369576 2.491016 0.32484177 -1.0463182 -0.27421185 0.3850745
-0.10187223 -0.35430372 -0.45296708 -0.8350625 0.14030187 0.07942812 -0.5307975 1.2466528
-3.4526005 -0.50431687 0.810024 -1.4112604 0.58985496 -2.126321 -0.40052062 0.54771763
-1.0986152 0.3697042 0.05719162 2.7067986 -0.17949182 -0.33001414 0.91319364 -1.6070186
0.9158738 0.2665594 0.58263075 0.11329435 0.58109283 0.034837265 -0.65841347 -0.0024574567
-0.6054414 -0.102440156 -0.20083475 -2.54218 -3.416298 0.15266939 0.51309997 -0.7403707
1.6266103 1.2483559 1.5483457 -1.3609748 -0.30909538 -0.17740887 -0.034115765 -0.61000264
0.9794774 -0.20228447 0.19375034 -0.42692068 -0.21855173 -0.15609409 -0.008632825 0.3827995
-0.5887619 0.63382715 -1.4415693 0.5850909 0.48887536 -0.3901692 -0.2872119 0.48934692
-0.18302816 -0.041457806 0.5271678 0.522191 0.6535972 1.0951431 -1.3807732 0.16546278
-0.2956648 -0.6770082 0.59360766 0.75102025 -0.9671875 0.6473555 -1.7463094 -0.8062727
-0.85534906 0.86571705 -1.0979353 0.2953533 0.6946526 -1.2530785 -0.018327668 -0.5002503
-1.4213033 0.4601815 0.6042105 0.036994785 0.064862825 0.4413435 0.16396421 0.31082925
-0.82095134 1.2229812 0.21544938 0.31749582 -0.06979617 0.6560781 -0.08412469 0.7036489
00000000: 1278 aa3f e75c 043e 8736 0ebf 0a5b 3d3f
00000010: 90f2 19bf 1445 203f 6bbe 8abe 0ef5 103f
00000020: 004a 89be 0daa fc3d 515b f1be 15ba 01be
00000030: 04cd a33f 1a0e aebf 74ea 5a3f b7a2 ecbe
00000040: bc2d 4a3f bddc 07bf 4897 223f 499a 5d3f
00000050: 7e03 993f 65e5 0a40 c150 9dbd a6c1 db3e
00000060: dbcc bfbe 08fa a9bf 98a2 883f 5813 92bf
00000070: 4b44 8bbe ffb4 d93f c151 f43c 0731 7dbf
00000080: a4b2 4c3c db60 f73e 50e8 813f 77ce e43f
00000090: df33 0740 10e7 8dbf 4007 6bbe a3d5 ab3f
000000a0: 4d34 84be 5788 71bf 195e 2f3e 9c12 88be
000000b0: 8ca6 2dbe 06f0 5ebf ec09 55be c75b 8f3f
000000c0: 1a33 e9bf 3280 343e 8dfc 5ebf 75b3 3540
000000d0: 675e 55bf 755a 9340 cd4f b83e 69b2 c23f
000000e0: bdc3 d4bf fe49 ee3e 6aa3 593f 4748 d3be
000000f0: 0e0e 16c0 95b2 b1be 7e82 cd3e 3484 9abe
00000100: 36f8 9cbf bc15 b63e 0136 053f f5b8 cd3e
00000110: 45f5 813f 0f96 1dbf 4b1f e13f 60b7 7a3f
00000120: 3a5a 833e 589d 3a3f 9050 ebbf d9f2 3cbf
00000130: dc11 84bf cd6a 453f 11b6 41bf 513c 9bbd
00000140: d1ba 533f 7709 9bbf 047e 12bd c843 563f
00000150: bf4e 903e 6940 34bf e0b2 78bf c3e4 24c0
00000160: b95a 083f 2de9 433d 60e2 81bf d4d0 3bbf
00000170: f10f 1640 aa70 233e 7896 a63e 3dec b8bf
00000180: fd82 29be 18de 893f de95 69be c9e6 83bf
00000190: 7b29 a73f 149f 28be 1821 31bf f5f9 2040
000001a0: cc25 bfbf 0b86 0ebf 071e 98bf 158d a13f
000001b0: 74bc 563f 06e2 c2bd 2863 09c0 f316 63bf
000001c0: 9247 1240 b37c 433e fd64 623f 247c 043f
000001d0: b369 b0be 3a0f 39be c29d ddbd ab14 bb3f
000001e0: e6b3 b13f 8ed6 793f 2993 2740 3f51 6d3e
000001f0: 0d0e 0840 03e4 cf3e 5a38 083f c994 80bf
00000200: 4ab7 d63f 8ac0 7ebe da8a 833f 1f6a 29be
00000210: 179f 1640 f6fb 03c0 28d2 493f 4deb de3d
00000220: 66d3 783f d2ea 8ac0 2cf9 bfbf 2eef c73f
00000230: da27 6d3f 5ee6 53bf 9e42 8340 7762 053f
00000240: 8559 06be 619c bebe eac3 0840 ce6c 1f40
00000250: a951 a63e c1ed 85bf 7f65 8cbe 7c28 c53e
00000260: 63a2 d0bd 4c67 b5be 4deb e7be a8c6 55bf
00000270: 4bab 0f3e 36ab a23d 58e2 07bf 5292 9f3f
00000280: 68f7 5cc0 e91a 01bf bc5d 4f3f 2ea4 b4bf
00000290: bc00 173f a515 08c0 0a11 cdbe 3937 0c3f
000002a0: 6c9f 8cbf de49 bd3e c341 6a3d 303c 2d40
000002b0: b4cc 37be 9df7 a8be 0fc7 693f c9b2 cdbf
000002c0: b576 6a3f 797a 883e 4a27 153f de06 e83d
000002d0: 80c2 143f 85b1 0e3d c98d 28bf 480d 21bb
000002e0: 35fe 1abf 25cc d1bd a0a7 4dbe 14b3 22c0
000002f0: a0a4 5ac0 5d55 1c3e 855a 033f ef88 3dbf
00000300: c434 d03f 20ca 9f3f 3130 c63f 6c34 aebf
00000310: c041 9ebe acaa 35be f9bc 0bbd 2229 1cbf
00000320: 08bf 7a3f a923 4fbe 7d66 463e 5995 dabe
00000330: 06cc 5fbe 21d7 1fbe b170 0dbc 4cfe c33e
00000340: 1ab9 16bf 7f42 223f 5885 b8bf 84c8 153f
00000350: df4d fa3e 42c4 c7be 700d 93be ae8b fa3e
00000360: bc6b 3bbe a9cf 29bd 78f4 063f 4fae 053f
00000370: 2552 273f a62d 8c3f 2dbd b0bf 136f 293e
00000380: 6061 97be 6950 2dbf acf6 173f dd42 403f
00000390: 9a99 77bf 17b9 253f 1187 dfbf e367 4ebf
000003a0: 28f8 5abf a29f 5d3f 2589 8cbf 8c38 973e
000003b0: c1d4 313f e064 a0bf e823 96bc 6710 00bf
000003c0: 44ed b5bf e99c eb3e 8aad 1a3f d887 173d
000003d0: cdd6 843d c6f7 e13e 3ce6 273e 0325 9f3e
000003e0: de29 52bf a68a 9c3f c39e 5c3e d08e a23e
000003f0: 4bf1 8ebd bcf4 273f 9149 acbd 5622 343f

layer.4.bias f4 [50]
-0.39219806 -1.6663605 1.1862724 1.0351816 0.07529818 -0.25211856 -0.06598412 0.046164356
0.039402366 -0.17940901 -1.6628851 0.54656965 -1.3153784 0.5184148 -0.47947657 0.9916051
-0.003321202 0.6005903 1.1080167 1.0489117 -0.6374322 0.8313698 -0.26360032 -1.063479
-0.32546026 -0.36711583 0.09730017 1.0237468 -2.4675384 -0.023147985 0.2259456 -0.5364652
-5.087912 -4.470427 2.286343 -0.09384985 0.044893913 -0.42050263 0.85273397 -0.5972167
-1.0923526 -2.5453663 -3.3348007 0.78975517 0.43481633 0.42102602 0.7640931 0.49607402
1.2785066 -0.86589956
00000000: 2fce c8be 4d4b d5bf c6d7 973f d580 843f
00000010: ef35 9a3d af15 81be af22 87bd d616 3d3d
00000020: 6064 213d ffb6 37be 6bd9 d4bf fdeb 0b3f
00000030: 525e a8bf d5b6 043f f47d f5be d5d9 7d3f
00000040: 86a8 59bb 49c0 193f 7ed3 8d3f bd42 863f
00000050: c22e 23bf a7d4 543f 9ff6 86be 1420 88bf
00000060: baa2 a6be 9bf6 bbbe 5045 c73d 230a 833f
00000070: 26ec 1dc0 d8a0 bdbc 495e 673e c955 09bf
00000080: 2dd0 a2c0 bd0d 8fc0 7253 1240 5a34 c0bd
00000090: aee2 373d 1f4c d7be c64c 5a3f 32e3 18bf
000000a0: 36d2 8bbf 48e7 22c0 606d 55c0 652d 4a3f
000000b0: 3fa0 de3e b990 d73e 9b9b 433f 6afd fd3e
000000c0: 1ba6 a33f 98ab 5dbf

layer.6.weight f4 [50, 50]
-0.7428005 -0.7991789 -0.7592455 -0.17462684 -0.08352767 0.17612137 -0.26681003 1.1013074
1.0727589 0.47840106 0.6256645 0.29095766 -0.30465376 0.5258706 -1.2497462 -0.40728295
0.1555021 -0.008207407 0.33708686 -1.2786591 1.8483458 -2.5498226 0.4125512 0.1489415
0.5143077 -0.032680724 -0.19368626 0.34819472 0.16566953 0.19216467 1.0070792 -0.2669082
-0.12028768 0.6874591 -0.54858047 -0.56793725 0.45223927 -0.022279212 0.3040186 0.8358775
0.15011078 0.06933015 0.061696365 0.554378 0.590808 1.2345886 -0.015397279 0.02880817
-0.43540245 0.453684 -1.3579185 -0.60013515 -0.8321326 -0.0014973148 0.045919627 0.8477761
-0.22766638 -0.33471206 0.19087407 -0.35425615 0.6216747 0.5053227 0.2884655 -0.20942959
-0.34309414 -1.0604551 0.6560699 -0.1613754 0.2871919 0.67865276 0.61701626 -0.4779373
0.4022052 0.24508022 0.25745204 -0.23149855 0.56714666 -1.1996474 1.3493932 0.58244675
0.4853533 -0.6617535 0.035342965 0.46438557 -0.16825478 -0.45541131 0.9843585 -0.6923037
0.7085511 -0.1883708 0.38733643 -0.008743727 0.02106209 0.81399286 0.5384284 1.5408602
-0.9735932 -0.08273752 -1.3029977 0.74071854 0.059698205 -0.17546284 -0.054849114 -0.87796706
-0.30335158 -0.15572745 -0.21208903 -0.11260705 -0.12950242 0.07675008 -0.16094066 -0.21315768
-0.071786456 0.527945 -0.7200958 -0.14348233 -0.22256638 -0.1579206 0.19302084 -0.23808599
0.23715812 -0.1889413 0.2856656 0.23934747 -1.2496904 0.02813603 0.28210947 0.24055684
0.1917251 -0.08502597 0.0367896 0.09476582 0.10265841 -0.24691738 -0.29529223 -0.26550537
0.23294799 -0.46333045 0.29563296 0.1906599 0.28624156 0.29141626 0.22932307 -0.28429645
0.054839768 0.10971068 -0.26864263 0.11733795 -0.04157885 -0.0875861 -1.0097532 -1.0686827
-0.9616795 -0.5651122 -0.064424515 -0.040897936 0.16804382 -0.50774616 0.26289275 0.482775
1.148985 0.46514228 -0.43323433 0.10080637 -0.4718265 -0.34913054 0.27669734 -0.5857325
-1.2798028 1.3155932 0.7272578 -0.77659523 0.17895736 -0.05828076 0.3156318 0.596555
-0.5059867 -1.2377564 1.0928115 0.6667237 1.0841275 -0.66391635 -0.52440614 0.69389015
-0.531792 -0.83921903 0.27936542 0.36975113 0.9506901 0.44183367 0.004143814 1.2105361
0.26824433 0.8823403 0.33253 0.8898179 0.28530338 -0.5753361 1.2782979 0.69719315
0.5991846 0.8959588 0.3995966 0.3348689 0.58347857 -0.08117911 0.29873148 -0.12923124
-0.7553401 0.2677017 -0.89615846 -0.2833938 -0.09416383 0.20687081 0.31579438 0.4276619
-0.29756454 0.7723568 2.4775565 -0.12572671 -0.20263797 0.41748688 -0.11011859 -0.48506323
-0.024157347 -0.49297112 0.30583334 -0.05639387 -0.53170186 0.40945077 -0.6281521 0.93763876
0.12413084 -0.3552009 0.32136467 0.5565451 -0.2968329 0.18567134 -0.7745913 -0.6956622
-0.36936438 -0.48896474 0.14005439 -0.14879803 -0.18875039 0.024356445 0.0054120673 -1.3675786
-0.4636293 -0.8369831 -0.26492572 0.53432834 0.48165068 0.6085248 0.538479 0.044358853
00000000: 2c28 3ebf fd96 4cbf ea5d 42bf 61d1 32be
00000010: 8e10 abbd 2959 343e 539b 88be a4f7 8c3f
00000020: 2a50 893f fcf0 f43e 8c2b 203f 67f8 943e
00000030: 94fb 9bbe 759f 063f aff7 9fbf 6487 d0be
00000040: f13b 1f3e 5c78 06bc a696 ac3e 1aab a3bf
00000050: 9896 ec3f 4b30 23c0 e939 d33e 1f84 183e
00000060: aba9 033f 39dc 05bd b155 46be 9446 b23e
00000070: 46a5 293e d1c6 443e f9e7 803f 31a8 88be
00000080: 6359 f6bd 52fd 2f3f c56f 0cbf 5664 11bf
00000090: e88b e73e e582 b6bc 53a8 9b3e 11fc 553f
000000a0: a4b6 193e f7fc 8d3d 54b5 7c3d b7eb 0d3f
000000b0: 313f 173f 0007 9e3f de44 7cbc 1dff eb3c
000000c0: 12ed debe 4549 e83e 46d0 adbf 75a2 19bf
000000d0: a406 55bf 8c41 c4ba 3816 3c3d db07 593f
000000e0: 6021 69be 615f abbe 7e74 433e 1061 b5be
000000f0: 1326 1f3f d45c 013f c0b1 933e b674 56be
00000100: 09aa afbe febc 87bf 32f4 273f 983f 25be
00000110: d10a 933e 30bc 2d3f c7f4 1d3f 33b4 f4be
00000120: d7ed cd3e 4ff6 7a3e c1d0 833e f50d 6dbe
00000130: 8630 113f 0c8e 99bf ebb8 ac3f 3b1b 153f
00000140: 3a80 f83e ad68 29bf c9c3 103d f2c3 ed3e
00000150: fb4a 2cbe ac2b e9be ebfe 7b3f d13a 31bf
00000160: 9b63 353f 46e4 40be f650 c63e d941 0fbc
00000170: 678a ac3c d661 503f 72d6 093f e83a c53f
00000180: 673d 79bf 4a72 a9bd a1c8 a6bf bb9f 3d3f
00000190: 1b86 743d 88ac 33be 77a9 60bd 73c2 60bf
000001a0: e650 9bbe 0477 1fbe de2d 59be 869e e6bd
000001b0: 489c 04be 252f 9d3d a1cd 24be 0246 5abe
000001c0: c704 93bd 6727 073f 3358 38bf 08ed 12be
000001d0: 71e8 63be f0b5 21be 41a7 453e d0cc 73be
000001e0: 94d9 723e d479 41be c342 923e 8117 753e
000001f0: dbf5 9fbf 887d e63c a770 903e 8854 763e
00000200: 9653 443e 1922 aebd b1b0 163d 9514 c23d
00000210: 933e d23d e9d7 7cbe 8b30 97be 52f0 87be
00000220: eb89 6e3e a639 edbe 345d 973e 593c 433e
00000230: 418e 923e 8334 953e abd3 6a3e 4e8f 91be
00000240: aa9f 603d feaf e03d 878b 89be e14e f03d
00000250: 964e 2abd 5760 b3bd 983f 81bf 98ca 88bf
00000260: a130 76bf 31ab 10bf 00f1 83bd 9884 27bd
00000270: ae13 2c3e a7fb 01bf e199 863e 492e f73e
00000280: f111 933f 2127 ee3e e4d0 ddbe 9273 ce3d
00000290: 3e93 f1be 3dc1 b2be 46ab 8d3e 91f2 15bf
000002a0: 94d0 a3bf 5c65 a83f 912d 3a3f f2ce 46bf
000002b0: 9940 373e ceb7 6ebd 7e9a a13e d4b7 183f
000002c0: 5888 01bf cd6e 9ebf 3fe1 8b3f 68ae 2a3f
000002d0: b1c4 8a3f 6cf6 29bf 7b3f 06bf c9a2 313f
000002e0: 8523 08bf 0fd7 56bf fc08 8f3e 0550 bd3e
000002f0: 6d60 733f 0638 e23e d5c8 873b d9f2 9a3f
00000300: 5257 893e 0ee1 613f 5f41 aa3e 1bcb 633f
00000310: 4913 923e 3a49 13bf 449f a33f 407b 323f
00000320: 2964 193f 8e5d 653f ed97 cc3e f073 ab3e
00000330: da5e 153f 3c41 a6bd 55f3 983e 3255 04be
00000340: f85d 41bf 3210 893e a46a 65bf fe18 91be
00000350: f7d8 c0bd f1d5 533e cdaf a13e 80f6 da3e
00000360: 615a 98be 2db9 453f 4990 1e40 81be 00be
00000370: 5480 4fbe d7c0 d53e db85 e1bd 355a f8be
00000380: a1e5 c5bc b666 fcbe 3096 9c3e 42fd 66bd
00000390: 9d1d 08bf 88a3 d13e 93ce 20bf 1809 703f
000003a0: 4f38 fe3d e4dc b5be e989 a43e bd79 0e3f
000003b0: 7bfa 97be a120 3e3e 9e4b 46bf eb16 32bf
000003c0: 541d bdbe 9659 fabe 6b6a 0f3e 835e 18be
000003d0: c847 41be 2b87 c73c b657 b13b d10c afbf
000003e0: d260 edbe 8644 56bf 58a4 87be bec9 083f
000003f0: eb9a f63e 48c8 1b3f c2d9 093f a1b1 353d

layer.6.bias f4 [50]
0.7681871 0.77260095 0.25180736 1.182239 -0.6696764 -0.41350934 2.5427473 -0.9324203
-2.9578097 1.2408097 0.31758484 -0.49547166 -0.1302198 0.80742496 -0.0070977267 -0.6477595
2.9157336 -2.6002114 -0.5304825 0.1360977 -0.6828272 0.7254856 2.6406648 -2.8512578
0.26706013 0.80181575 1.6807342 2.9848511 0.70714337 -2.9945064 -0.22306708 -0.32087815
0.85340786 0.94861615 1.228388 0.9344822 0.45959276 -0.92087543 0.7842151 -2.0675933
1.3325295 2.7302082 0.896363 -2.652692 -0.23614028 2.0843983 0.20793147 1.3812804
2.568764 1.2705916
00000000: e9a7 443f 2dc9 453f e5ec 803e 9c53 973f
00000010: ea6f 2bbf 7fb7 d3be 5fbc 2240 19b3 6ebf
00000020: c14c 3dc0 dad2 9e3f 7b9a a23e 76ae fdbe
00000030: 5758 05be 67b3 4e3f 0c94 e8bb 91d3 25bf
00000040: 619b 3a40 dd69 26c0 b3cd 07bf 325d 0b3e
00000050: c3cd 2ebf 6db9 393f a700 2940 027b 36c0
00000060: 1bbc 883e cc43 4d3f 4c22 d73f cd07 3f40
00000070: 5907 353f fea5 3fc0 b26b 64be 244a a4be
00000080: f078 5a3f 82d8 723f d13b 9d3f 3a3a 6f3f
00000090: be4f eb3e 7ebe 6bbf 52c2 483f 7353 04c0
000000a0: 5490 aa3f bbbb 2e40 0c78 653f b5c5 29c0
000000b0: c2ce 71be c866 0540 fdeb 543e cccd b03f
000000c0: a166 2440 bfa2 a23f

layer.8.weight f4 [1, 50]
-0.1810679 -0.25196505 0.8362168 -0.30998608 0.20821236 -0.5645936 -0.23026252 0.2511782
0.26802987 -0.29315028 0.44180894 0.23585662 -0.37656167 -0.1540472 0.5035493 0.27077514
-0.20086314 0.13159887 0.028282935 0.120213546 0.2816186 0.38416985 -0.23027334 0.21470846
0.82581073 -0.17216511 -0.15052424 -0.1355677 0.3599373 0.20502727 -1.4936838 -0.0033293045
-0.31608275 0.0884865 -0.27492163 -0.22365096 0.44496608 0.3922364 0.35385543 0.20930895
-0.23144819 0.0061196224 -0.39529684 -0.39729828 -0.5732186 0.013956494 0.57495296 -0.30104294
-0.19531377 -0.44591835
00000000: dd69 39be 9001 81be 4e12 563f 7fb6 9ebe
00000010: 9f35 553e 3589 10bf f0c9 6bbe 6e9a 803e
00000020: 363b 893e cb17 96be c834 e23e 6684 713e
00000030: b1cc c0be 8dbe 1dbe 9be8 003f 0aa3 8a3e
00000040: 11af 4dbe dbc1 063e 9db1 e73c 8532 f63d
00000050: 5030 903e e9b1 c43e c6cc 6bbe 89dc 5b3e
00000060: 5568 533f 0d4c 30be 0723 1abe 42d2 0abe
00000070: b449 b83e abf2 513e 0831 bfbf 7630 5abb
00000080: 99d5 a1be 6938 b53d 87c2 8cbe c204 65be
00000090: 98d2 e33e 36d3 c83e 8a2c b53e 1655 563e
000000a0: c100 6dbe 1d87 c83b 5964 cabe ae6a cbbe
000000b0: 74be 12bf c7a9 643c 1e30 133f 4d22 9abe
000000c0: 5500 48be 694f e4be
