1D-CDD(1e-6)/Best_param.pt (torch, 35042 bytes, 9 tensors)

layer.0.weight f4 [50, 1]
00000000: 1c36 21bd a620 903e 56c6 3e43 b092 0e3f
00000010: 6b84 76be 3a3c c1be f6a4 82be a552 1dbd
00000020: 885f 093f 7a2b 1a3c 38b1 f6bc d627 98be
00000030: 474d 3dbd 65b4 63be 7889 95be 839e 3e3e
00000040: 1012 2ebc 1e81 c53c a13e 2abc d3d4 18bf
00000050: 5912 123f 9fe1 bcbb 44c7 6cbe 53bf 5d41
00000060: 1b3c 3443 636f 19bd 1261 43bc 12bd dc42
00000070: bc7b 073f 1f5c 293f ff79 833e b6c5 f33e
00000080: 9793 90bd 9fc0 9cbe 9706 c2bc d14d d43c
00000090: e432 3442 1c26 073f 5648 d53e 0e2b 2b3d
000000a0: 6e19 3640 8fe3 b03b 865e b2be bdff 8f3e
000000b0: c719 f6bd 38c7 f9be a9e9 4ebe 66ee d0bc
000000c0: 63e7 a83e e830 10be
-0.039358243 0.2814991 190.77475 0.5569258 -0.24073951 -0.37741262 -0.2551648 -0.038408894
0.53661394 0.00940978 -0.030113801 -0.29717892 -0.046216276 -0.22236784 -0.29206443 0.18615155
-0.010624424 0.02410942 -0.010390908 -0.59699744 0.57059246 -0.005764201 -0.23122889 13.85921
180.23479 -0.037459742 -0.011924999 110.36928 0.5292318 0.6615619 0.25679013 0.4761178
-0.070594005 -0.30615708 -0.023684783 0.025916012 45.049698 0.52792525 0.4165675 0.041789107
2.845302 0.005398221 -0.3483774 0.281248 -0.120166354 -0.48784804 -0.20206322 -0.025504302
0.32989034 -0.14081156

layer.0.bias f4 [50]
00000000: 7acb b1bb 442c 20be 73bf 793e eb0e 77bd
00000010: bdd9 053e 2126 c83d b941 113e 2f90 ac3b
00000020: b2de 63be 3141 3cbc 99b1 f43c 2189 0c3e
00000030: 2d20 9bbb ac41 f23d 45ec c63d 92cc cdbd
00000040: b3d8 343b e8d3 c33b 3644 debc 482f ba3d
00000050: e78f 29be 24a6 91bb 2cca 2b3e 62e8 e73d
00000060: b05e d53e cf17 07bb 6a2a d439 f7f9 9c3e
00000070: d3c8 9ebd 7417 0cbe 3552 19be d989 dabc
00000080: 2252 b93c 52e0 3e3e c20d 003b b226 943b
00000090: 6221 0f3f 6d93 a6bd 9c33 e3bd 85f3 b3bb
000000a0: 7bd3 60be ed28 d7bb af7f fa3d 963a 01be
000000b0: c630 9a3d 07fe 073e fb93 003e e8c8 8ebb
000000c0: feef f6bd 5174 9a3d
-0.0054258676 -0.15641886 0.24389438 -0.06031696 0.13071342 0.097728975 0.14185227 0.0052662115
-0.2225292 -0.011490152 0.029869841 0.13724186 -0.0047340603 0.11828932 0.097130336 -0.10048784
0.0027594983 0.005976189 -0.027132135 0.090910494 -0.165588 -0.0044448543 0.16776341 0.113236204
0.41673803 -0.0020613556 0.00040467392 0.30659458 -0.07753148 -0.13680822 -0.14972766 -0.026677059
0.022622172 0.18640259 0.001953945 0.0045212144 0.55910313 -0.08133588 -0.11093828 -0.0054916763
-0.21955673 -0.006566158 0.12231385 -0.12620005 0.07528834 0.13280497 0.1255645 -0.004357446
-0.120574936 0.07541717

layer.2.weight f4 [50, 50]
00000000: f0ad 8fbe 180e 29bd 53a8 9fbf 82c6 7a3e
00000010: a2c2 003f c7a4 8e3e 8b6f 313e 461f 8dbe
00000020: e954 29bf 0924 0ebe ca02 093e 818a 743e
00000030: 49c2 ca3e c233 da3e e2bf f8bc c73a b3bd
00000040: d1f3 123f 2ed8 b73e 550c 493e b418 9abe
00000050: e79f 6fbe 29db 82bd c837 c73e 2f72 41be
00000060: 1c9b 73bf 332f 593f 2ebb e73e 6b05 afbf
00000070: 1aa1 89be e0bf d8bd 74cd 623e 14ab 8dbd
00000080: 34c5 ce3e c33f bc3d b4f0 273d 2efb 48be
00000090: 277f b8be d66f 14bf 0110 213e 840c 523f
000000a0: d8a4 f4bd 66f1 523e 6b03 043e f069 a33d
000000b0: f957 62be 83ad 3ebd 9794 be3e 24c9 08bd
000000c0: 6a1d 06bf c8eb 003e bd09 51be 062a e03d
000000d0: 5148 093d 8268 66be ea0c 60be e1d2 fabe
000000e0: a11c d63c 1386 8bbe 5409 cf3e c607 c7bd
000000f0: 2cb3 3bbe 29e9 973d 6fb8 65be 9e5c b3be
00000100: 14bb 5ebe fa1c df3e 89e8 e9be cc06 38be
00000110: 4f27 1abd b769 563e 75df ce3e 2e0d db3e
00000120: b241 fbbc d347 fd3e 6581 8f3e f302 57be
00000130: e7c6 ffbd f65a a8be c50c a53e dd02 25be
00000140: bf4b b4be 7968 b23e 6ca6 933e b138 8dbe
00000150: 66d0 babd 4a40 bb3e 8f96 68be 180e 953e
00000160: c21c b73e 5167 a53d ba2f b73d 690c d9bd
00000170: ac4d e1be 235a 4c3e 7d65 0abf adae cabe
00000180: 4709 3fbd 46d3 c4be 9d7f 023f f6e1 d53d
00000190: 37a7 95bf 457f 73bf 7fa6 fc40 529d 4f3f
000001a0: e495 9dc0 e85f 45c0 97b0 4840 eb3d 00c0
000001b0: 8dc6 22c0 a55c 7440 b373 efbf 26d6 3140
000001c0: ab24 d1c0 0c24 1a40 4a08 69c0 f679 9abe
000001d0: 8503 283f a649 6e3e e3a9 3fc0 3b37 863f
000001e0: 0513 f040 4439 e9be d5ef 46c0 ba69 bdbe
000001f0: 0956 1b41 01c7 eac0 2f5c 40c0 2c68 9840
00000200: 2b8e 0240 2a5f b1bf 3bd0 0940 ef18 f23f
00000210: 6ad6 b040 9a99 2d40 2717 cec0 e6da 7540
00000220: f59b fb40 728a da3f c090 af3f a06d 4940
00000230: 691e debf 1ca0 35bf b3a7 353f 8856 1ebf
00000240: be85 c9bf 4ad8 70c0 8486 aa3f b41c a6be
00000250: 1574 a5c0 e9fb 8a40 4364 2b3f 0e1d 3c40
00000260: ed59 e8bf 5e5f b43f a18c dfbe 5ce1 7a3e
00000270: 0390 923f 43d5 debf 5205 9dbd 5d86 25bf
00000280: 48e0 82be 7716 643f f37d 9c3e 56bd 5f3e
00000290: aa8b 4bbf 22dd 9f3e 9c42 bfbe a325 5dbe
000002a0: db00 cb3e 4922 e5bf 6d85 89bb 9cff 5dc0
000002b0: 1678 403f 8853 20bf c333 f1bf 6fd4 40bf
000002c0: e196 993f df11 f8bf 2dd4 143b fbd7 87be
000002d0: 50c3 cebd d652 12bf 1fe6 86bf 928c a4be
000002e0: 340e 663f f141 963e 9a15 13bf 21e3 9abf
000002f0: dc66 753f 9519 c5bc e551 4ebf 24d5 853f
00000300: 9357 f0bb 1ae9 c73e 74be 453e 8fe5 adbf
00000310: 092d da3d 6cf6 c4be 7b20 ad3e a15b 68bf
00000320: daa9 54bf e259 c53f c9f3 0540 272e 3abe
00000330: edce 9cbe 656f 5abf 99cb 86bc 5416 6d3f
00000340: 03bd 3c3e 8b07 0940 8b23 b73d 0921 33be
00000350: b1a0 e2be 8cf0 813e 80a7 a7bf b843 1dbf
00000360: 01dc 403e 8640 a13f 6029 383f daf4 29bf
00000370: e1df dfbd 6cc3 80bf 60c9 0e3f cffd ec3e
00000380: b08d a03f 3867 e93e e96d 7c3f 2c89 a03f
00000390: 5679 12be 78d6 84bf cc0a 8fbf 839b c03e
000003a0: 3572 16bf d784 063e f28c 96be 75da f7bd
000003b0: 514d 943f f25e f93d cec8 ec3e 8be0 a0bf
000003c0: 320b 81bc eee2 94be d163 9d3e cb05 9ebe
000003d0: 82cf 5bbe 15f5 2cbf d555 a83f 477b 44bf
000003e0: eff5 873e 0023 9d3f b969 c53f 855b 60be
000003f0: e789 47c0 d306 7d3e 9411 07bf 0646 d43e
-0.2806239 -0.041273206 -1.2473243 0.24489787 0.50296986 0.2786009 0.17327707 -0.27562922
-0.6614519 -0.13880934 0.1337997 0.2388096 0.39601353 0.42617613 -0.030364934 -0.08751445
0.57403284 0.3590712 0.1963361 -0.30096972 -0.23400842 -0.06389458 0.38909745 -0.18891214
-0.95158553 0.84837645 0.45259994 -1.3673528 -0.26880723 -0.10583472 0.22148687 -0.06917396
0.4038483 0.09191849 0.041001037 -0.19627067 -0.3603451 -0.5798315 0.15728761 0.8205035
-0.11945504 0.20599899 0.12891929 0.0797919 -0.22103871 -0.046552192 0.3722274 -0.033394948
-0.5238863 0.12589943 -0.20413871 0.10945515 0.033516232 -0.22500804 -0.21879926 -0.48989013
0.026136698 -0.27250728 0.40436804 -0.097182795 -0.18330067 0.07417519 -0.22433637 -0.350316
-0.21751052 0.43576795 -0.45685223 -0.17971343 -0.037635144 0.20938765 0.4040486 0.42783493
-0.030670974 0.4946886 0.28028408 -0.20997219 -0.124891095 -0.32881898 0.32236305 -0.16114374
-0.3521404 0.3484533 0.28837907 -0.27582315 -0.0912178 0.36572486 -0.22713684 0.29112315
0.35764128 0.08076347 0.0894465 -0.1059807 -0.4400457 0.1995626 -0.5406111 -0.39586392
-0.046639707 -0.3844244 0.5097597 0.10443489 -1.1691655 -0.9511607 7.895324 0.81099427
-4.924547 -3.0839787 3.1357782 -2.0037792 -2.5433686 3.8181546 -1.8707184 2.7786956
-6.535726 2.4084501 -3.641131 -0.30171174 0.6563037 0.23270282 -2.994744 1.0485605
7.5023217 -0.45551503 -3.1083882 -0.36994725 9.708505 -7.3367925 -3.0056264 4.7627163
2.0399272 -1.3857167 2.1533344 1.8913859 5.5261736 2.7125 -6.440326 3.8414855
7.8627877 1.70735 1.3716049 3.147316 -1.735303 -0.7094743 0.70959014 -0.61850786
-1.574394 -3.7632012 1.3322301 -0.32443774 -5.17042 4.3432508 0.6694986 2.9392734
-1.8152443 1.4091604 -0.4366198 0.2450003 1.1450199 -1.7408832 -0.076670304 -0.6465815
-0.25561738 0.8909678 0.30564842 0.2184957 -0.79509985 0.31223398 -0.37355506 -0.21596389
0.3964909 -1.7901088 -0.004196814 -3.4687262 0.75183237 -0.6262746 -1.8843921 -0.7532415
1.199917 -1.9380454 0.0022709474 -0.26531968 -0.10095847 -0.5715765 -1.0538977 -0.32138497
0.8986542 0.29347184 -0.57454836 -1.2100564 0.95860076 -0.02406005 -0.8059371 1.045567
-0.0073346584 0.3904503 0.19310933 -1.3585681 0.10653121 -0.38469255 0.33813843 -0.90764815
-0.8307167 1.5418055 2.0930045 -0.18181668 -0.30626622 -0.85326225 -0.016454505 0.92612195
0.18431477 2.1410854 0.08942326 -0.1749307 -0.44263223 0.25378835 -1.3097992 -0.61431456
0.18833925 1.2597816 0.71938133 -0.6638924 -0.109313734 -1.0059638 0.55776024 0.4628739
1.254324 0.45586562 0.9860521 1.2541862 -0.14304098 -1.0377951 -1.117517 0.37618646
-0.58768016 0.13136612 -0.29404408 -0.12102214 1.1586095 0.121763125 0.46246952 -1.2568525
-0.015752409 -0.29079384 0.30740216 -0.30863795 -0.21465877 -0.67561466 1.3151194 -0.76750606
0.2655482 1.2276306 1.5422889 -0.21909912 -3.117792 0.24709634 -0.527612 0.41459674

layer.2.bias f4 [50]
00000000: e1f6 93be e833 e63d 2564 6ec0 a171 f0be
00000010: 7012 443f 22cb 0140 4c44 9f3e cf07 47bf
00000020: 30f9 a13f 27cf 093f 6b1d 87c0 9c2c bb3e
00000030: 9623 1cc0 37ca 31c0 dc61 b7be d53f 93bf
00000040: d37a ba3d c5a0 623f d7e8 42bf 7535 1140
00000050: f3a1 1540 cf07 ad40 2f02 5abe 3d3f 34bf
00000060: 1132 9740 8cff a2c0 7271 e13e 6331 103f
00000070: 273b 72be f348 37bf b548 d33f c9e1 4a3e
00000080: 274c 5ebf 8368 913f 644b 1fbf 2544 a3be
00000090: d66f bbbe 7ba4 21c0 fc10 45be 00c6 7b40
000000a0: fa32 fe3e cfd2 133e 8a07 f33f d6cf 093f
000000b0: 9491 58bf 24fe 013e 2701 13bd 2e49 5440
000000c0: 0eb5 3fc0 f781 cdbe
-0.2889929 0.11240369 -3.7248623 -0.46961692 0.76590633 2.0280232 0.31106794 -0.7774629
1.2654171 0.53831714 -4.222341 0.36557472 -2.439672 -2.7779672 -0.35816848 -1.1503855
0.09105458 0.88526565 -0.76136535 2.2688878 2.3380096 5.407203 -0.21289895 -0.70408994
4.7248616 -5.0936947 0.44031864 0.5632536 -0.23655377 -0.71595687 1.6506563 0.19812693
-0.8683495 1.136002 -0.6222441 -0.31887928 -0.36608762 -2.525664 -0.1924476 3.93396
0.49648267 0.14435886 1.8986676 0.5383276 -0.84597135 0.12694603 -0.03588977 3.3169665
-2.9954257 -0.40138218

layer.4.weight f4 [50, 50]
00000000: 335d aa3f 0ac7 123e e724 0fbf 6af4 403f
00000010: 9b84 1bbf baaf 203f 3e02 86be 157a 123f
00000020: d85c 8bbe 4a2e e13d 751e f5be cd62 07be
00000030: 93c4 a43f 6e19 aebf f778 5b3f 7f60 ebbe
00000040: 424e 493f 561e 06bf 196a 1e3f 2efd 5e3f
00000050: ac87 993f 3c83 0e40 d1c0 bbbd b72e dc3e
00000060: 7394 c0be a116 abbf 9cf3 883f ef71 90bf
00000070: 4274 88be 9df2 d63f d7d3 df3c 325a 81bf
00000080: a171 1e3c 4281 f83e fed2 813f c2a4 e53f
00000090: 0212 0740 85c1 8dbf 365d 70be a5d9 ac3f
000000a0: 7fd8 87be fdc4 72bf 0f30 323e 64ee 87be
000000b0: 4da0 27be d8e1 60bf 1588 4abe de36 8f3f
000000c0: 6ac1 e9bf 0f9e 233e 48e1 56bf 5b92 3140
000000d0: 442b 3abf 49ff 8f40 f52d d03e 0ab0 b93f
000000e0: 42d3 cebf 55ed 003f e313 6c3f c5f0 cfbe
000000f0: a6b5 12c0 40da 92be 662d ba3e 6a57 72be
00000100: ba2e a9bf 5d63 e43e b8da 133f 6362 e73e
00000110: c52e 783f 4deb 31bf bce3 e03f d455 723f
00000120: 52ae a03e 76d9 2c3f 6ddf e3bf 2c17 2ebf
00000130: e1f4 8bbf a8bd 383f f5e1 50bf 08bd 1fbe
00000140: 0867 3a3f af62 93bf 01d5 87bd 2538 663f
00000150: 206c 893e e0b5 43bf b5ff 82bf 34da 21c0
00000160: 1f85 223f b6c8 23bc 5402 6bbf ae6c 2cbf
00000170: 49dc 1940 ef22 7b3d 3985 6c3e fc83 b1bf
00000180: 4571 12be f8cd 7b3f 6148 32be 0904 7fbf
00000190: 4562 aa3f f138 b9bd 0c8d 5ebf 59bc 2940
000001a0: 71b3 dbbf 06d2 d3be d1e9 aabf 79b6 9c3f
000001b0: feee 2c3f b7a3 92be a115 15c0 d912 84bf
000001c0: 3815 1a40 858a 1cbb 7520 813f 6390 ba3e
000001d0: 56fd e5be b9ac 94be dacc 98be 84ce c83f
000001e0: 7339 b13f d688 9c3f d837 1640 cd47 ce3e
000001f0: 385d fd3f cf9c 2b3e a016 313f 426f 78bf
00000200: 69f9 e73f 0b16 87bd 27d7 943f 687c 97be
00000210: 5089 2940 7f54 0ac0 508e 453f 4ce5 973e
00000220: 3a55 943f 90fc 8fc0 d931 cdbf 3560 df3f
00000230: d35f 483f 3667 80bf 1617 8340 cf9d 223f
00000240: f120 8cbb e05f 05bf 39f5 f63f ae48 2840
00000250: fe58 ab3d 95a7 a4bf 911d 8fbf f5e6 05be
00000260: b2d9 94be 338b 193e 18c5 60bf 5013 afbe
00000270: 380b 75be 658f fc3e 5037 93bf d3bd 0f3e
00000280: be29 7ec0 1a2c 84bf e187 a33f acd8 f8bf
00000290: f105 353f cd30 cebf d344 b13e 978c 083e
000002a0: 174f aabf 6c86 7a3f f5a1 5e3f 8b5e 3740
000002b0: 34d1 763f 70e5 893e 196f e63e 3d73 08c0
000002c0: 6055 ba3f b976 adbd 869c 7c3f d660 5a3f
000002d0: de4d 103f e412 ccbe d192 14be b19f 23bf
000002e0: a709 7e3f f4b8 bd3e 9f6c 213f c61d 4cc0
000002f0: f6e9 9ac0 87c5 d23e 03b9 2bbf 711f b7bf
00000300: d99e 5040 0569 f83f 9885 0040 51ec bfbf
00000310: 1f4a a3be 2b24 093e 83dc 253d d11e e0bf
00000320: 8894 dc3e a65c 8bbd 9575 ba3f ef57 233e
00000330: 7bbb 73be 06ea 81bd da78 1d3e 923a 8b3e
00000340: bb60 78bf 6322 7e3f cadd e7be ec02 d83f
00000350: e6f9 7ec0 f704 7d40 bfe4 5a3d 7708 03bd
00000360: fe22 ab3e 2560 88bf aee6 eb3f 3ebc efbf
00000370: 3fdb 37c0 8a69 753e 6b03 30bf e544 98be
00000380: 20f2 4fbf b9cb 0240 63a0 823f 7006 afbf
00000390: be1f 2dc0 282e 5f3f beeb 01c0 ebbb 213f
000003a0: e8a9 84bf 593d 833e 4950 79bf 6cc7 4dbe
000003b0: 7fcc 983e 207c aebf 14e6 fdbe 9c82 abbf
000003c0: 07b1 00c0 7de1 7f3f c489 40bf 7b9a 243f
000003d0: 6265 b53f cc0a ba3f 15fa 5dbe 8e0f 6abf
000003e0: 5333 273f 14e6 8a40 0a28 743e 5d59 963e
000003f0: e9c7 2dbd fb36 223f 061c 9fbd 95c3 2c3f
1.3309692 0.1433374 -0.55915684 0.75372946 -0.60749215 0.6276814 -0.26173586 0.5721753
-0.27219272 0.10995157 -0.478748 -0.13221283 1.287249 -1.360151 0.8573145 -0.45972058
0.78635037 -0.5239004 0.6188064 0.8710507 1.1994529 2.22676 -0.09167636 0.4300439
-0.37613258 -1.3366281 1.0699344 -1.128477 -0.26651198 1.679279 0.027322693 -1.010565
0.009670646 0.48536116 1.0142515 1.7940905 2.110474 -1.1074682 -0.23473057 1.350392
-0.2653236 -0.9483183 0.17401145 -0.26549065 -0.16369744 -0.8784461 -0.19778474 1.1188619
-1.826215 0.15978263 -0.839375 2.7745578 -0.7272227 4.4999127 0.40660062 1.4506848
-1.6158221 0.5036214 0.92217845 -0.4061338 -2.292337 -0.28682137 0.3636276 -0.23666158
-1.3217385 0.44607058 0.57755613 0.4519225 0.96946365 -0.69499665 1.7569499 0.94662213
0.31382996 0.6751932 -1.7802559 -0.6800411 -1.0934106 0.7216439 -0.81594783 -0.15599453
0.72813463 -1.1514491 -0.06632424 0.8992942 0.26840305 -0.76449394 -1.0234286 -2.528943
0.63484377 -0.009996584 -0.9180043 -0.6735333 2.4040701 0.061312612 0.23097695 -1.3868403
-0.14301021 0.9836116 -0.17410423 -0.9961553 1.331124 -0.09044064 -0.8693397 2.6521208
-1.7164136 -0.41371173 -1.3352605 1.2243186 0.67552173 -0.2864053 -2.3294451 -1.0318252
2.407545 -0.0023886275 1.008803 0.36438283 -0.44919842 -0.29038027 -0.2984379 1.5688024
1.3845657 1.2229259 2.3471584 0.40289155 1.9794073 0.16759036 0.6917515 -0.97044766
1.8122989 -0.06596001 1.1628159 -0.29587102 2.649006 -2.1614072 0.77170277 0.29667127
1.1588509 -4.4995804 -1.6030837 1.7451235 0.78271216 -1.0031497 4.096568 0.63522047
-0.004276388 -0.5209942 1.9293586 2.629436 0.08366583 -1.2863642 -1.1180898 -0.13076384
-0.29072338 0.14994507 -0.8780074 -0.34194422 -0.23930061 0.4932815 -1.1501255 0.14037256
-3.9712977 -1.0325959 1.2775842 -1.9441123 0.7071219 -1.6108643 0.3462282 0.13334881
-1.3305386 0.9786136 0.86965877 2.8651454 0.9641297 0.2693286 0.45006636 -2.1320336
1.4557304 -0.0846991 0.98676336 0.8530401 0.56368816 -0.39858162 -0.14509131 -0.63915545
0.9923348 0.3705517 0.6305637 -3.1893172 -4.8410597 0.41166326 -0.6707918 -1.430647
3.2596953 1.940705 2.008154 -1.4993993 -0.31892487 0.13392703 0.0404935 -1.7509404
0.4308207 -0.06804781 1.4567133 0.15951513 -0.23801987 -0.063434646 0.15378132 0.27193123
-0.970226 0.9927122 -0.452864 1.6875892 -3.9840026 3.953428 0.053440806 -0.031990495
0.33425134 -1.0654341 1.8429773 -1.8729322 -2.8727567 0.23966041 -0.68755215 -0.29740062
-0.8122883 2.0436842 1.0205196 -1.367384 -2.7050624 0.87179804 -2.0300136 0.63177365
-1.0364351 0.25632742 -0.9738813 -0.20095605 0.29843518 -1.363163 -0.49589598 -1.3399234
-2.010805 0.9995344 -0.75210214 0.6429822 1.4171565 1.4534545 -0.2167743 -0.91429985
0.6531269 4.3405857 0.23843399 0.29365054 -0.042426977 0.63365144 -0.07769017 0.67485934

layer.4.bias f4 [50]
00000000: c795 c9be 2ada cdbf 2418 853f bd76 123f
00000010: 99f8 e1be e5ca 63be c62c f53d e300 863c
00000020: 42e6 523d 10fe b0bf 6663 cabf 9dae 093f
00000030: e55d e3bf 2485 a03e 13b9 77be 58d2 4d3f
00000040: 18d1 1e3f 1d3b 223f 82e9 2640 825b 1b3f
00000050: c1cd 28bf e2c3 af3f 3e23 c2bf ec46 04bf
00000060: ccf9 f5be 2677 cabe 9a9e 783e c847 0f3f
00000070: 445e 15c0 9bc3 f03f c22a 963e f86a 0ebf
00000080: cf19 a1c0 d7ec 86c0 a32e 0c40 314c b43b
00000090: f537 20c0 ab6d f7be e8ce 643f 1c96 11bf
000000a0: 108e 34c0 2e47 01c0 0a9a 43c0 16ce 473f
000000b0: 54c2 f63e 0d14 3b3f 9406 563f 1ece e53e
000000c0: cfb6 6d3f 70a2 67bf
-0.39372084 -1.6082203 1.0397992 0.5721243 -0.44134977 -0.22245367 0.119714305 0.016357845
0.051489122 -1.3827534 -1.5811584 0.53782064 -1.7763029 0.31351578 -0.24191694 0.80399084
0.620378 0.6337145 2.6080022 0.60686505 -0.65938956 1.3731654 -1.5167005 -0.5167072
-0.48042142 -0.39544028 0.24279252 0.55968904 -2.3338785 1.8809694 0.29329497 -0.5563197
-5.0344005 -4.216411 2.1903465 0.005502247 -2.5034153 -0.48325858 0.89378214 -0.56869674
-2.8211708 -2.0199695 -3.0562768 0.7804884 0.48195136 0.7307747 0.8360379 0.44883817
0.9285707 -0.90482235

layer.6.weight f4 [50, 50]
00000000: 2c28 3ebf fd96 4cbf ea5d 42bf 61d1 32be
00000010: 8e10 abbd 2959 343e 539b 88be a4f7 8c3f
00000020: 2a50 893f fcf0 f43e 8c2b 203f 67f8 943e
00000030: 94fb 9bbe 759f 063f aff7 9fbf 6487 d0be
00000040: f13b 1f3e 5c78 06bc a696 ac3e 1aab a3bf
00000050: 9896 ec3f 4b30 23c0 e939 d33e 1f84 183e
00000060: aba9 033f 39dc 05bd b155 46be 9446 b23e
00000070: 46a5 293e d1c6 443e f9e7 803f 31a8 88be
00000080: 6359 f6bd 52fd 2f3f c56f 0cbf 5664 11bf
00000090: e88b e73e e582 b6bc 53a8 9b3e 11fc 553f
000000a0: a4b6 193e f7fc 8d3d 54b5 7c3d b7eb 0d3f
000000b0: 313f 173f 0007 9e3f de44 7cbc 1dff eb3c
000000c0: 12ed debe 4549 e83e 46d0 adbf 75a2 19bf
000000d0: a406 55bf 8c41 c4ba 3816 3c3d db07 593f
000000e0: 6021 69be 615f abbe 7e74 433e 1061 b5be
000000f0: 1326 1f3f d45c 013f c0b1 933e b674 56be
00000100: 09aa afbe febc 87bf 32f4 273f 983f 25be
00000110: d10a 933e 30bc 2d3f c7f4 1d3f 33b4 f4be
00000120: d7ed cd3e 4ff6 7a3e c1d0 833e f50d 6dbe
00000130: 8630 113f 0c8e 99bf ebb8 ac3f 3b1b 153f
00000140: 3a80 f83e ad68 29bf c9c3 103d f2c3 ed3e
00000150: fb4a 2cbe ac2b e9be ebfe 7b3f d13a 31bf
00000160: 9b63 353f 46e4 40be f650 c63e d941 0fbc
00000170: 678a ac3c d661 503f 72d6 093f e83a c53f
00000180: 673d 79bf 4a72 a9bd a1c8 a6bf bb9f 3d3f
00000190: a8ba 3abe cec4 d5be a103 98be d82c 8fbf
000001a0: 263f 96be e3a9 cbbe 4a1c e5be 5f8c 043e
000001b0: 2405 69bd 6153 843e 251d a63d 42aa ec3c
000001c0: f701 293e e752 943e d078 c2be e766 813d
000001d0: 0e12 b0bd 2c53 b5be 00d4 48bd 788b eebe
000001e0: b228 e83e 2018 dcbe 4e70 ef3e cf28 d83e
000001f0: 526c 2abf 380c 5bbe a5ee d63f e431 f4b8
00000200: b71a de3e 2366 16bc cc1b 6b3e c4d1 16be
00000210: 567d b03e 2191 9fbb 8813 eebe 42c6 a5be
00000220: f928 c43e 7b90 62be 2aa7 093f 5180 52bd
00000230: c44e ef3e 2e0b 703e 0d6d ed3e 5d08 2dbd
00000240: 6602 983e 35b9 863e a3b4 07bf 0f01 b83e
00000250: 8bfc 8ebe b02b 1e3e 983f 81bf 98ca 88bf
00000260: a130 76bf 31ab 10bf 00f1 83bd 9884 27bd
00000270: ae13 2c3e a7fb 01bf e199 863e 492e f73e
00000280: f111 933f 2127 ee3e e4d0 ddbe 9273 ce3d
00000290: 3e93 f1be 3dc1 b2be 46ab 8d3e 91f2 15bf
000002a0: 94d0 a3bf 5c65 a83f 912d 3a3f f2ce 46bf
000002b0: 9940 373e ceb7 6ebd 7e9a a13e d4b7 183f
000002c0: 5888 01bf cd6e 9ebf 3fe1 8b3f 68ae 2a3f
000002d0: b1c4 8a3f 6cf6 29bf 7b3f 06bf c9a2 313f
000002e0: 8523 08bf 0fd7 56bf fc08 8f3e 0550 bd3e
000002f0: 6d60 733f 0638 e23e d5c8 873b d9f2 9a3f
00000300: 5257 893e 0ee1 613f 5f41 aa3e 1bcb 633f
00000310: 4913 923e 3a49 13bf 449f a33f 407b 323f
00000320: 5e02 223f c3fb 6d3f 5ed4 dd3e 61b0 bc3e
00000330: 98c0 0c3f 0c9f 42bd c62f aa3e 0fce 26be
00000340: c2bf 38bf 83a7 6f3e d908 6ebf 6f55 a2be
00000350: 57e5 02be d24e 763e edec b23e f132 ec3e
00000360: d296 a9be cf5e 5c3f 786b 1c40 478b bcbd
00000370: 35f9 71be 48fd e63e c93b 13be 52cb 04bf
00000380: 3ad6 6cbd 4a2a ebbe ffc5 8a3e 9d33 babc
00000390: d2bb 10bf f9df e23e c86c 29bf 4da7 783f
000003a0: 9446 b93d 5519 c7be 5ac6 b53e f217 173f
000003b0: ec36 a9be c0a7 1b3e d3e9 4ebf b678 29bf
000003c0: c559 cebe 03cb 05bf 1ae3 d93d 61d7 3abe
000003d0: a9c0 63be 94cb 6d3d 600e 203d ec5b b3bf
000003e0: 6124 dcbe bbe2 5ebf 5d2e 51be 4950 183f
000003f0: 05d4 0a3f d34e 2b3f 2c45 0e3f 7e0d d73d
-0.7428005 -0.7991789 -0.7592455 -0.17462684 -0.08352767 0.17612137 -0.26681003 1.1013074
1.0727589 0.47840106 0.6256645 0.29095766 -0.30465376 0.5258706 -1.2497462 -0.40728295
0.1555021 -0.008207407 0.33708686 -1.2786591 1.8483458 -2.5498226 0.4125512 0.1489415
0.5143077 -0.032680724 -0.19368626 0.34819472 0.16566953 0.19216467 1.0070792 -0.2669082
-0.12028768 0.6874591 -0.54858047 -0.56793725 0.45223927 -0.022279212 0.3040186 0.8358775
0.15011078 0.06933015 0.061696365 0.554378 0.590808 1.2345886 -0.015397279 0.02880817
-0.43540245 0.453684 -1.3579185 -0.60013515 -0.8321326 -0.0014973148 0.045919627 0.8477761
-0.22766638 -0.33471206 0.19087407 -0.35425615 0.6216747 0.5053227 0.2884655 -0.20942959
-0.34309414 -1.0604551 0.6560699 -0.1613754 0.2871919 0.67865276 0.61701626 -0.4779373
0.4022052 0.24508022 0.25745204 -0.23149855 0.56714666 -1.1996474 1.3493932 0.58244675
0.4853533 -0.6617535 0.035342965 0.46438557 -0.16825478 -0.45541131 0.9843585 -0.6923037
0.7085511 -0.1883708 0.38733643 -0.008743727 0.02106209 0.81399286 0.5384284 1.5408602
-0.9735932 -0.08273752 -1.3029977 0.74071854 -0.18235266 -0.41751713 -0.2969027 -1.118556
-0.29345053 -0.3977805 -0.44748145 0.12944172 -0.056889668 0.25844863 0.08111028 0.028889779
0.16504656 0.289695 -0.37982798 0.06318455 -0.08597194 -0.35415018 -0.049030304 -0.4659078
0.45343548 -0.42987156 0.4676537 0.42218634 -0.66571534 -0.2139138 1.6791579 -0.000116441195
0.43379757 -0.009179625 0.22959822 -0.14728457 0.34470624 -0.0048695956 -0.46499276 -0.3237782
0.3831251 -0.22125427 0.537707 -0.051391903 0.4673978 0.23441765 0.46372262 -0.042244304
0.2968933 0.26313177 -0.53010005 0.35938308 -0.2792705 0.15446353 -1.0097532 -1.0686827
-0.9616795 -0.5651122 -0.064424515 -0.040897936 0.16804382 -0.50774616 0.26289275 0.482775
1.148985 0.46514228 -0.43323433 0.10080637 -0.4718265 -0.34913054 0.27669734 -0.5857325
-1.2798028 1.3155932 0.7272578 -0.77659523 0.17895736 -0.05828076 0.3156318 0.596555
-0.5059867 -1.2377564 1.0928115 0.6667237 1.0841275 -0.66391635 -0.52440614 0.69389015
-0.531792 -0.83921903 0.27936542 0.36975113 0.9506901 0.44183367 0.004143814 1.2105361
0.26824433 0.8823403 0.33253 0.8898179 0.28530338 -0.5753361 1.2782979 0.69719315
0.6328486 0.9296228 0.43326086 0.36853316 0.54981375 -0.04751496 0.33239573 -0.16289543
-0.721676 0.23403744 -0.9298225 -0.31705806 -0.12782799 0.24053505 0.34946385 0.46132615
-0.3312288 0.86082166 2.4440594 -0.092062525 -0.23630221 0.45115113 -0.14378275 -0.5187274
-0.05782149 -0.45930701 0.27104184 -0.02272969 -0.5653659 0.44311503 -0.6618161 0.9713028
0.09046665 -0.38886514 0.35502893 0.5902091 -0.33049715 0.1520071 -0.8082554 -0.66199815
-0.40302864 -0.52262896 0.10639019 -0.18246223 -0.22241463 0.058055475 0.03907621 -1.4012427
-0.42996505 -0.87064713 -0.20427842 0.59497505 0.54229766 0.6691715 0.555743 0.1050062

layer.6.bias f4 [50]
00000000: e9a7 443f 2dc9 453f 4bde fc3e 9c53 973f
00000010: 1f0e 34bf a4c4 f2be 5fbc 2240 bc92 76bf
00000020: c14c 3dc0 8c21 a03f 035f b03e 76ae fdbe
00000030: 982f bdbe e32a 563f 569f 19be 5f60 41bf
00000040: 619b 3a40 dd69 26c0 1cb4 ffbe 7eab 533e
00000050: b3b7 26bf 1b61 443f a700 2940 027b 36c0
00000060: 1ea9 f33e cc43 4d3f b2b9 d03f cd07 3f40
00000070: 510d 433f fea5 3fc0 ecef 82be fd5b bdbe
00000080: f078 5a3f b792 7c3f d13b 9d3f 3a3a 6f3f
00000090: da87 023f 7ebe 6bbf 07ae 333f 7353 04c0
000000a0: dc02 b83f ac15 3540 c962 5d3f 1f03 2fc0
000000b0: d568 84be 63c1 e73f f709 d83e ff3a ac3f
000000c0: a166 2440 734a a23f
0.7681871 0.77260095 0.49388346 1.182239 -0.7033405 -0.4741565 2.5427473 -0.9631765
-2.9578097 1.2510238 0.34447488 -0.49547166 -0.36950374 0.8365919 -0.15002188 -0.75537676
2.9157336 -2.6002114 -0.499421 0.20670888 -0.6512405 0.7671067 2.6406648 -2.8512578
0.47589964 0.80181575 1.630667 2.9848511 0.76192194 -2.9945064 -0.2557367 -0.36984244
0.85340786 0.9866137 1.228388 0.9344822 0.50988543 -0.92087543 0.7018742 -2.0675933
1.4375873 2.8294477 0.8647886 -2.7345655 -0.2586123 1.8105892 0.42195103 1.3455504
2.568764 1.267897

layer.8.weight f4 [1, 50]
00000000: 80ab 44be 5ba0 86be 0291 523f 4a55 a4be
00000010: be75 603e e5b5 0dbf 4f09 77be f674 803e
00000020: 01da 8e3e 96b6 9bbe fd95 dc3e 36c2 7c3e
00000030: 2a51 a2be 3000 29be a1db ab3d 9bce 2e3e
00000040: 96f0 58be 7e03 123e 58e4 203d 7740 943f
00000050: 1bcf 953e 1e13 bf3e 330c 77be 111a 673e
00000060: 7631 4d3f b08d 3bbe 8199 81be e513 16be
00000070: e9aa b23e aa33 5d3e 6ad3 bdbf 176d fb3b
00000080: 6474 a7be 74b2 9e3d 5261 92be 8445 70be
00000090: cd33 de3e 0172 ce3e 90e9 183f 2c95 613e
000000a0: c234 78be b8cd 5a3e 2403 d0be ba5f a4be
000000b0: 24eb 0fbf 73cd 46be f49f 913e 18c1 9fbe
000000c0: 2742 53be 51ee e9be
-0.19206047 -0.26294217 0.82252514 -0.3209632 0.21919915 -0.55355674 -0.24124645 0.25089234
0.279007 -0.3041274 0.43083182 0.2468346 -0.31702548 -0.16503978 0.083915 0.17071001
-0.21185526 0.14259145 0.039280266 1.1582173 0.2925957 0.37319273 -0.24125747 0.22568537
0.80153596 -0.18315768 -0.25312427 -0.14656027 0.3489602 0.2160174 -1.4830143 0.0076729166
-0.32705986 0.07748881 -0.28589875 -0.23464018 0.43398896 0.40321353 0.5973139 0.22029561
-0.24238876 0.21367538 -0.40627396 -0.32104284 -0.5621817 -0.1941431 0.28442347 -0.31202006
-0.20630704 -0.45689633
