1D-CDD(1e-6)/Pre-Trained.pt (torch, 35028 bytes, 9 tensors)

layer.0.weight f4 [50, 1]
00000000: 5712 4bbe 4dfe 593e ad7f 8342 f230 cc3e
00000010: c0f3 98be ef74 f1be 38c2 c2be db4c 7dbe
00000020: d29f ec3d b3a2 4b3e 82aa 5c3c 790b 6ebe
00000030: 8679 a0bd 5657 32be 73a5 52bf 714b 933e
00000040: 5273 cfbe cf37 fdbe 1e52 a5be c452 a2be
00000050: 2d5f 713f 3678 68be 17a7 6bbc a32d e440
00000060: 7630 3b42 a31d e3bc 2783 2bbd 2b60 4242
00000070: 9c65 eabc 605f 273f e0aa 8cbe 68a3 113e
00000080: dbc6 f7bd a26e 95be b4b0 6ebd 8778 54bd
00000090: 7cb2 8841 b898 0e3f a950 aa3e 35ec 8b3d
000000a0: 046e c73f 3950 b0be 7b0d 0fbe f6e0 be3d
000000b0: 47c7 65bf 1c22 9dbe 458b febe 8373 3b3d
000000c0: 3dea b23e a82e 18be
-0.19831215 0.21288414 65.74937 0.39881092 -0.29873466 -0.47159526 -0.38038802 -0.2473635
0.11553921 0.19886284 0.013468387 -0.23246564 -0.07835679 -0.17416129 -0.82283705 0.28768495
-0.4051767 -0.4945664 -0.32289213 -0.3170377 0.9428585 -0.22702107 -0.014383099 7.130571
46.797325 -0.027724093 -0.041873123 48.593914 -0.028612904 0.65379906 -0.27474117 0.14222491
-0.120984755 -0.2918597 -0.058273986 -0.051872756 17.08715 0.5570178 0.33264664 0.06832162
1.5580449 -0.34436205 -0.13969986 0.09320252 -0.897572 -0.30690086 -0.4971563 0.045764457
0.34944335 -0.14861548

layer.0.bias f4 [50]
00000000: 7b28 183d f6ed 68bd 289c 633e 7814 25be
00000010: 2c6b 99bd ae20 93bd 9dad 17be 032d 74bc
00000020: 0de1 01be a17e 2a3d ec4c 4c3d 0551 613e
00000030: a1b1 cd3c 7630 2dbd 16bf 71bd 6094 4abd
00000040: 0945 16bd 08d2 2a3c a4d4 313e 02e8 1b3d
00000050: 173c 323d 55f8 c6ba 2f22 cabb e56d 3d3e
00000060: cc77 5c3e b594 be3c eb76 e73d 6d80 903e
00000070: 4b4c bcbd a1f4 d0bd 657d 063e d722 183d
00000080: 76f3 673d e2ca 9c3c 9f8b 23bd 66c1 c1bc
00000090: 9da7 a63d 1145 20be b33a d63c 2a9a 72bb
000000a0: 1ac1 bebd 9a47 30bd fef8 57b9 f513 96bc
000000b0: 5e36 c1bd 6069 843c 03ed 04be 3be6 a7be
000000c0: f7c1 95bd 0c6c 783e
0.03714798 -0.056867562 0.22227538 -0.1612109 -0.074911445 -0.071839675 -0.14812322 -0.01490331
-0.12683506 0.04162467 0.049878046 0.22003563 0.025109114 -0.042282544 -0.059020124 -0.049457908
-0.03668693 0.010426052 0.17366272 0.038063057 0.043514337 -0.001518021 -0.006168626 0.18498953
0.21530074 0.023264268 0.11301979 0.2822298 -0.09194239 -0.10202909 0.13133772 0.0371426
0.056628667 0.01913971 -0.039928075 -0.02365179 0.081374384 -0.15651347 0.026151037 -0.0037018158
-0.09314175 -0.043037035 -0.00020596755 -0.018320063 -0.09434198 0.016163528 -0.12981038 -0.3279284
-0.073123865 0.24259967

layer.2.weight f4 [50, 50]
00000000: 2110 603e 543f c13d 2dfa 39bf be6e 2c3f
00000010: 1c14 7d3e 342a cc3d 8718 1a3e c5da ba3e
00000020: 5a2d c6be 7275 00be 593d c2be a340 b63d
00000030: 64a3 023e 3499 973e 901b 223e ce58 473e
00000040: 6458 c83e 188d 673e 355e 6a3e c8e6 cdbe
00000050: 8d0e f0bc 5318 71bd 1802 c43e 2ec5 e9bd
00000060: c1c1 86be 0471 e0bd e6ef 9f3e 0dbc 69bf
00000070: 225b 973e 45ae 4f3e 4b6c a63d 380a 4a3e
00000080: 8a1c 20be 2fb0 943e 0956 e43b 6f52 b6be
00000090: 3e30 53be 6993 1cbe ba8a b53e ff88 d63e
000000a0: d604 623d a3f8 dc3e bae0 bcbe 0744 ec3e
000000b0: dfce a73d c59f 09be 9dcd 923e b1c4 bf3e
000000c0: 5608 eabe 72d2 a13d 9db0 72be 5f50 5e3d
000000d0: 4de1 213b ac2e 36be 1405 a7bd 8ce2 89be
000000e0: 9310 56bd b1f4 93be c617 d43e 6872 06be
000000f0: 8e73 b4bd 05df 44bd 7786 cfbd c4f5 aebd
00000100: 8af6 18be 7d16 1b3e b7bc 01bf 05f0 8abe
00000110: 3901 d5be aa8a 803d 79bf a63e 9565 2fbe
00000120: a2ce a4be c0ed b23d 827c 3e3e e626 6b3e
00000130: 6954 b5bd 0cfc 76be 5877 803e 03b9 3abe
00000140: f928 c7bd d5dd f73d 9d2e 073e c7c1 3fbe
00000150: adce d8bd c1c9 243e 7b6d 093e 0819 183e
00000160: 361a 053f 5ecc 203e f37a 4d3e 120e 0bbe
00000170: afbd e5be b465 433e 94a4 e6be 89fb aebe
00000180: 02da 75be d469 10be cd02 ab3e 5cc6 eebd
00000190: 7687 ba3e 7708 8dbe bf09 c540 bf7e 463e
000001a0: 4fd1 2e3f 89fe 3bbe 4ba6 523e 2b00 1d3f
000001b0: 627b 453f b8d3 08c0 e73e 8dbf 20e8 1abf
000001c0: b3cb c8be 12bb 453e c811 c0be 24d4 ec3e
000001d0: 58ed edbd bebb 953f 43c4 39be f9a9 a83f
000001e0: 183c 673f 25fb dd3e 3eee 053f 1052 7b3f
000001f0: c1bd 6f40 b143 62bf 6980 42be 42ad b23f
00000200: 77bd 5f3e 11eb b73e 66b3 a4bc 8944 35be
00000210: c726 0040 e3d0 bc3e 5d27 b0bf b16c ddbe
00000220: 6e41 0140 9071 583f 138b 2e3e 9b26 95bf
00000230: de72 22bf e692 9a3f 729d 423f 18fa b1be
00000240: 825d aabe 209c 143d 4c74 0840 7f1d 9f3f
00000250: 02c3 4ebd 27b4 173f 9e55 0fbf 4ee3 3ebd
00000260: 8ab7 7ebe 378e 0b3c af5f 1e3e 8a07 433e
00000270: 28f8 3cbe d8ff 1ebf 165a 4f3d b4c8 233e
00000280: 5271 1c3b b3b8 953b d967 6fbe 5d59 443d
00000290: cd08 bebe ab44 88bd 82f6 bebe 16be 30be
000002a0: bb14 1bbf 697d f1bd 0f56 a3be 83c1 d0be
000002b0: d10b 27bf 6074 0b3c 23ce 50be ed22 b5bc
000002c0: 17dd 7d3e 9fde 05bf 202c 30be 584b 13be
000002d0: 56fb 00bf 7b5a cebd 1389 a7be 7fa8 403e
000002e0: 2239 253e 8d68 fcbc 2aae f0be 3867 25bd
000002f0: 98e9 1cbb aeb8 d43d e705 9cbe fa06 8f3e
00000300: 1a8b 1a3e d95c 57be fbd3 6abe 6d10 9b3e
00000310: bb30 efbd fb1d 87bd 5a52 ff3b 281c 19bf
00000320: aa8c 97be 6d42 733e d41b af3f 2363 78be
00000330: 97a5 913e 691d b9be baff ab3e f7c6 a63e
00000340: 080b 9d3e 8bff 133e ab1e 31bc 6722 b9bd
00000350: f258 b1be 0d18 73bd ca96 433e 62fd 9bbc
00000360: 2b24 143d 7158 b7bd 7c67 ce3e dce6 28be
00000370: 6e3a 903d 3d66 b03d efa0 33bd c2a4 c33d
00000380: 32ec 193f dc6c 193f 2cc2 12be dc5d 363f
00000390: 29c4 a13e 2ea0 eebe d038 d4bd d5f0 f03e
000003a0: a2ad 073f a0a0 4abe 6861 a0be aa82 0ebd
000003b0: 1dae 5a3f 960f c83e 986d 103f 7ac2 2abe
000003c0: bf6f 33be a66c 34be 46ec 80be 5f18 99be
000003d0: 0a35 ab3e 28b1 04be 7994 023f 3445 4fbd
000003e0: 4596 c73e 65fa dc3e af42 fe3e 3bf7 ce3e
000003f0: 6aaa c7bf 162a 58bf 096e abbe 8aac fb3e
0.21881153 0.09435907 -0.7264736 0.6735648 0.24714702 0.09968987 0.15048419 0.36495033
-0.38706475 -0.12544802 -0.3793743 0.08899047 0.12757641 0.29609072 0.15830827 0.1946747
0.39129937 0.22612417 0.228875 -0.40215135 -0.029303813 -0.058861088 0.38282847 -0.11414562
-0.26319697 -0.10959056 0.31237715 -0.9130257 0.29561716 0.20281322 0.08126124 0.1973046
-0.15635887 0.29040667 0.006968264 -0.35609767 -0.20623872 -0.15290608 0.35457402 0.41901395
0.055180393 0.43158445 -0.36890203 0.4614565 0.081937544 -0.13439853 0.28672495 0.3745475
-0.45709485 0.079014674 -0.23700185 0.054275867 0.002470094 -0.17791241 -0.081552655 -0.26930654
-0.0522619 -0.28897622 0.41424388 -0.1312958 -0.08811103 -0.04806425 -0.10133069 -0.0854297
-0.14937797 0.15145297 -0.5067858 -0.27136245 -0.41602495 0.06276448 0.32567957 -0.17128594
-0.32188898 0.087367535 0.18602183 0.22964057 -0.088539906 -0.24119586 0.25091052 -0.18234639
-0.09724612 0.12102858 0.13201375 -0.18726264 -0.10586295 0.16092588 0.1342067 0.14853299
0.5199312 0.1570296 0.20066433 -0.13579586 -0.4487128 0.19081765 -0.45047438 -0.3417628
-0.24008945 -0.1410287 0.33400574 -0.11658928 0.36431473 -0.2754552 6.1574397 0.19384287
0.6828813 -0.18358816 0.20571248 0.6132838 0.7714139 -2.1379223 -1.1034821 -0.60510445
-0.3921791 0.19309643 -0.37513566 0.462556 -0.11617535 1.1697919 -0.18141274 1.3176872
0.9032607 0.4335567 0.52316654 0.9817209 3.7459567 -0.8838454 -0.18994297 1.3959124
0.21849619 0.3592153 -0.020105075 -0.17701925 2.0023668 0.36878118 -1.3762013 -0.43246987
2.0196185 0.8454828 0.1704524 -1.1652406 -0.63456523 1.207608 0.7602149 -0.3476112
-0.33274466 0.036281705 2.1320982 1.2430876 -0.050478943 0.59259266 -0.55990016 -0.046603493
-0.24874702 0.008517793 0.15466188 0.19045845 -0.18454039 -0.62109137 0.050623022 0.15994531
0.0023871255 0.004569137 -0.23379458 0.047936786 -0.3711609 -0.066537224 -0.37297446 -0.17260012
-0.6057851 -0.11791498 -0.31901595 -0.40772638 -0.65252405 0.008511633 -0.20391135 -0.02211138
0.2479137 -0.5229282 -0.17204332 -0.1438421 -0.5038351 -0.100758515 -0.32721767 0.18814276
0.16135076 -0.030811572 -0.47007877 -0.04038164 -0.0023942944 0.10386787 -0.30473253 0.2793501
0.15092126 -0.21031512 -0.22932427 0.3028597 -0.116792165 -0.06597515 0.0077917995 -0.5980859
-0.29599506 0.23755808 1.3680367 -0.24256568 0.28446648 -0.3615525 0.3359354 0.32573673
0.3067248 0.1445295 -0.0108105345 -0.09039765 -0.34638172 -0.05934911 0.1910049 -0.01904172
0.036167305 -0.08952416 0.40313327 -0.16494316 0.070423946 0.086132504 -0.04385465 0.095529094
0.6012603 0.5993173 -0.14331883 0.7123697 0.3159497 -0.46606582 -0.103623986 0.4705874
0.5299932 -0.19787836 -0.31324315 -0.03479258 0.85421926 0.3907439 0.56417227 -0.1667575
-0.17523097 -0.17619571 -0.25180262 -0.29901406 0.33438903 -0.12958205 0.510078 -0.050603107
0.38981834 0.43159786 0.4966025 0.40422997 -1.5598881 -0.8443922 -0.33482388 0.49155074

layer.2.bias f4 [50]
00000000: 29d6 093d 198e 883d ef08 12bf 2242 1bbd
00000010: 1dd8 c23d 26a8 2ebd 4688 203e c189 c53d
00000020: c31b 5d3e 93a4 aa3c 182d afbf 61ba 363e
00000030: 412c 173f 00b8 1fbf 6e20 6abd 4c3a e43d
00000040: 89be ed3c 5cd7 313e 2ce2 0a3b c3b6 153f
00000050: 2102 623f 9ba4 a13f b2e7 373c 4ebb 273d
00000060: 9192 8840 7b72 80bf eacc 53be 6025 1b3e
00000070: d20b babd 2808 643d 290c 18be fc80 a23c
00000080: e192 c9bd df3d 0f3e 2884 b2bd 1dd9 b53e
00000090: e293 c83d f8a4 bdbf 1391 6cbd 01ec fb3e
000000a0: 80e8 263e 278d 7f3a be79 a73f 8c57 f0bc
000000b0: 046d 363d a8ad ee3c 3ef7 413d f81f 513e
000000c0: 2155 06bf ff23 8ebc
0.033651505 0.06667728 -0.5704488 -0.037904866 0.095138766 -0.042640828 0.15676984 0.09645415
0.21592622 0.020830428 -1.3685637 0.17844535 0.590519 -0.62390137 -0.057159834 0.11143932
0.029021518 0.1736731 0.0021191938 0.58482 0.882845 1.2628359 0.011224674 0.040950112
4.2678914 -1.0034937 -0.20683637 0.15150976 -0.09084286 0.05567184 -0.14848389 0.019836895
-0.09842468 0.13988446 -0.08716613 0.35517207 0.097938314 -1.481597 -0.05775554 0.49203494
0.16299629 0.00097485114 1.3084028 -0.02933862 0.04453756 0.02913554 0.04735493 0.20422351
-0.52473646 -0.017351149

layer.4.weight f4 [50, 50]
00000000: 335d aa3f 0ac7 123e e724 0fbf 6af4 403f
00000010: 9b84 1bbf baaf 203f 3e02 86be 157a 123f
00000020: d85c 8bbe 4a2e e13d 751e f5be cd62 07be
00000030: 93c4 a43f 6e19 aebf f778 5b3f 7f60 ebbe
00000040: 424e 493f 561e 06bf 196a 1e3f 2efd 5e3f
00000050: ac87 993f 3c83 0e40 d1c0 bbbd b72e dc3e
00000060: 7394 c0be a116 abbf 9cf3 883f ef71 90bf
00000070: 4274 88be 9df2 d63f d7d3 df3c 325a 81bf
00000080: a171 1e3c 4281 f83e fed2 813f c2a4 e53f
00000090: 0212 0740 85c1 8dbf 365d 70be a5d9 ac3f
000000a0: 7fd8 87be fdc4 72bf 0f30 323e 64ee 87be
000000b0: 4da0 27be d8e1 60bf 1588 4abe de36 8f3f
000000c0: 6ac1 e9bf 0f9e 233e 6928 51bf 5bf1 2f40
000000d0: f5d5 3fbf ebbc 9040 db1d dd3e 2d24 b83f
000000e0: bf57 ccbf d0e6 f43e ad22 6f3f 8ffe c4be
000000f0: ce0d 11c0 192f 86be 1cef ac3e f007 63be
00000100: b21f a7bf 73b4 d73e 0bd4 193f 4e6f f03e
00000110: 387b 7e3f a6c0 2cbf fdb5 e33f f8c0 6e3f
00000120: 033e ac3e 6c99 273f b88f e0bf 15c0 28bf
00000130: 41b9 8ebf 4e1a 333f 1c41 57bf b206 07be
00000140: afe6 403f dc13 90bf 2409 b7bd 0b4b 683f
00000150: fd98 7e3e 4a55 4abf cc20 86bf 5632 20c0
00000160: f6db 1c3f c763 12bd 8464 6fbf ab7b 26bf
00000170: a3de 1940 6254 ae3d 2b54 7c3e 2957 aebf
00000180: a103 03be 0d1c 803f 9ed3 17be c18f 79bf
00000190: 4562 aa3f f138 b9bd 0c8d 5ebf 59bc 2940
000001a0: 71b3 dbbf 06d2 d3be d1e9 aabf 79b6 9c3f
000001b0: feee 2c3f b7a3 92be a115 15c0 d912 84bf
000001c0: 3815 1a40 858a 1cbb 7520 813f 6390 ba3e
000001d0: 56fd e5be b9ac 94be dacc 98be 84ce c83f
000001e0: 7339 b13f d688 9c3f d837 1640 cd47 ce3e
000001f0: 385d fd3f cf9c 2b3e a016 313f 426f 78bf
00000200: 69f9 e73f 0b16 87bd 27d7 943f 687c 97be
00000210: 5089 2940 7f54 0ac0 508e 453f 4ce5 973e
00000220: 3a55 943f 90fc 8fc0 d931 cdbf 3560 df3f
00000230: d35f 483f 3667 80bf 1617 8340 cf9d 223f
00000240: f120 8cbb e05f 05bf 39f5 f63f ae48 2840
00000250: fe58 ab3d 95a7 a4bf d2ce b9be b9dd ff3e
00000260: c5a4 4cbe 9872 debe d02d 00bf ebfa 3bbf
00000270: 108d 953d 2264 333e 6d57 22bf 8c94 963f
00000280: 35a7 62c0 951b 1dbf 415b 6a3f e4d0 bcbf
00000290: f9e9 2a3f 7559 0ec0 8d7c bdbe 7995 fc3e
000002a0: 0dd0 97bf 0786 f33e 559d 243e f6d0 3040
000002b0: 050e b4bd a37f 5abe d0e2 4f3f dc3c d6bf
000002c0: 124b 823f 4e4f 3f3e 76bd 303f 03aa 3b3e
000002d0: 60cf 2b3f 4b31 c4bd 972c 15bf 4956 d6bd
000002e0: e8a4 ffbe 520a 9b3a 007c d9bd 89ae 28c0
000002f0: 5678 62c0 e762 843e a194 cf3e b464 57bf
00000300: dc4a dc3f c2a1 a83f 2032 d93f 4d5e bbbf
00000310: 225f 07be 7489 a1bd 7219 88bd 074e 01bf
00000320: 3fc8 133f d40d 193d b0f1 a53f 5e14 993e
00000330: 32db c2be ecb7 a63d 4608 5c3c ad13 d43e
00000340: 1c6b 8ebf b712 793f c1d0 1dbf e28d 7e3e
00000350: 24f8 75c0 c750 7240 bded 303e 2747 3d3e
00000360: 8f9b f63e 27b0 99bf ef56 fe3f 1da9 ddbf
00000370: de4d 2dc0 d51e c83e fffd 0fbf 0d03 a0be
00000380: b8b3 73bf af80 ee3f 4622 963f 446e c6bf
00000390: 0ad7 5dbf aaf2 813f 0dbf f0bf 474a 60be
000003a0: ee60 64bf 1449 ea3d 42cb 4bbf 2286 78bd
000003b0: 9fef e23e b1f6 c0bf bf6b 11bf 5eb6 97bf
000003c0: a39f 09c0 14e3 9d3f 3c88 16bf 4f83 3e3f
000003d0: 248a c33f 0f62 d63f fa2a adbe 6e11 46bf
000003e0: 568c f73e bb66 8f40 0a28 743e 5d59 963e
000003f0: e9c7 2dbd fb36 223f 061c 9fbd 95c3 2c3f
1.3309692 0.1433374 -0.55915684 0.75372946 -0.60749215 0.6276814 -0.26173586 0.5721753
-0.27219272 0.10995157 -0.478748 -0.13221283 1.287249 -1.360151 0.8573145 -0.45972058
0.78635037 -0.5239004 0.6188064 0.8710507 1.1994529 2.22676 -0.09167636 0.4300439
-0.37613258 -1.3366281 1.0699344 -1.128477 -0.26651198 1.679279 0.027322693 -1.010565
0.009670646 0.48536116 1.0142515 1.7940905 2.110474 -1.1074682 -0.23473057 1.350392
-0.2653236 -0.9483183 0.17401145 -0.26549065 -0.16369744 -0.8784461 -0.19778474 1.1188619
-1.826215 0.15978263 -0.81702286 2.7491062 -0.7493585 4.5230613 0.4318684 1.438604
-1.5964278 0.47832346 0.93412286 -0.38475463 -2.2664676 -0.26207808 0.33776176 -0.22170997
-1.3056548 0.4212986 0.60089177 0.4695992 0.99406767 -0.6748146 1.7789913 0.93263197
0.3364106 0.6546848 -1.754386 -0.65918094 -1.1150285 0.6996201 -0.84083724 -0.13186148
0.75351995 -1.1256061 -0.0893729 0.90739506 0.24863048 -0.7903639 -1.0478759 -2.5030723
0.61273134 -0.035739686 -0.9351275 -0.6503245 2.4042137 0.085121885 0.24641483 -1.3620349
-0.12794353 1.000856 -0.1482682 -0.97484976 1.331124 -0.09044064 -0.8693397 2.6521208
-1.7164136 -0.41371173 -1.3352605 1.2243186 0.67552173 -0.2864053 -2.3294451 -1.0318252
2.407545 -0.0023886275 1.008803 0.36438283 -0.44919842 -0.29038027 -0.2984379 1.5688024
1.3845657 1.2229259 2.3471584 0.40289155 1.9794073 0.16759036 0.6917515 -0.97044766
1.8122989 -0.06596001 1.1628159 -0.29587102 2.649006 -2.1614072 0.77170277 0.29667127
1.1588509 -4.4995804 -1.6030837 1.7451235 0.78271216 -1.0031497 4.096568 0.63522047
-0.004276388 -0.5209942 1.9293586 2.629436 0.08366583 -1.2863642 -0.36290604 0.49973848
-0.1998473 -0.43446803 -0.50069904 -0.73429745 0.07302296 0.17518666 -0.6341465 1.1764083
-3.5414555 -0.6137021 0.9154549 -1.4751248 0.66763264 -2.22421 -0.37009087 0.4933279
-1.1860367 0.47563192 0.16075642 2.762754 -0.087917365 -0.21337752 0.81205463 -1.6737323
1.017916 0.18682596 0.69039094 0.18326573 0.67113304 -0.095797144 -0.58271164 -0.10465676
-0.499305 0.0011828637 -0.10619354 -2.6356528 -3.5385947 0.25856707 0.40543082 -0.84138036
1.7210345 1.3174365 1.6968422 -1.4638153 -0.13219884 -0.07887545 -0.06645478 -0.50509685
0.57727426 0.037366703 1.2964382 0.2989835 -0.38057858 0.08140549 0.013429707 0.4142126
-1.1126437 0.9729418 -0.6164666 0.24858811 -3.8432703 3.7861803 0.1727819 0.18484174
0.48165557 -1.2006882 1.987028 -1.7317234 -2.7078776 0.39086023 -0.5624694 -0.31252328
-0.95196104 1.8633021 1.172921 -1.55024 -0.8665625 1.015218 -1.8808304 -0.21903335
-0.892104 0.1143972 -0.7960702 -0.060674794 0.4432344 -1.5075284 -0.5680503 -1.1852529
-2.1503685 1.2334924 -0.5880163 0.7441911 1.5276532 1.6748675 -0.3382185 -0.77370346
0.48349255 4.4812903 0.23843399 0.29365054 -0.042426977 0.63365144 -0.07769017 0.67485934

layer.4.bias f4 [50]
00000000: c795 c9be 758a cabf 2418 853f 901e 6f3f
00000010: 8abc 14bf e5ca 63be 12f9 fbba e300 863c
00000020: 5ea8 073e ba20 dabe 6bd9 d4bf 9dae 093f
00000030: cd77 babf 130f 323f 77f6 08bf 04e1 8d3f
00000040: 61a3 aa3e c619 483f d024 893f 82c2 8d3f
00000050: c1cd 28bf b6d8 d83f 1960 c7bf 147f 90bf
00000060: 60e6 0abf 2677 cabe 383b 673e 2057 783f
00000070: 80bd 1cc0 70dc 83be c437 d7bd b3d7 05bf
00000080: cf19 a1c0 cbba 86c0 a6e1 0c40 2849 80bc
00000090: 1d34 41c0 ab6d f7be 54c1 683f 1c96 11bf
000000a0: 0e67 9dbf cca0 2cc0 59a0 5ec0 16ce 473f
000000b0: 54c2 f63e 7800 d73e a1e6 403f 1ece e53e
000000c0: 36f5 a03f 2d8c 61bf
-0.39372084 -1.5823504 1.0397992 0.9340601 -0.5810019 -0.22245367 -0.0019224009 0.016357845
0.1324782 -0.42603093 -1.6628851 0.53782064 -1.456781 0.6955425 -0.53501076 1.1084294
0.33327773 0.7816433 1.0714359 1.1074984 -0.65938956 1.6941135 -1.5576202 -1.1288781
-0.54257774 -0.39544028 0.22581184 0.9700794 -2.4490662 -0.25754118 -0.10508683 -0.52282256
-5.0344005 -4.210302 2.2012725 -0.015659884 -3.0188057 -0.48325858 0.90919995 -0.56869674
-1.2297075 -2.6973143 -3.4785368 0.7804884 0.48195136 0.41992545 0.7535191 0.44883817
1.2574832 -0.88104516

layer.6.weight f4 [50, 50]
00000000: 2c28 3ebf fd96 4cbf ea5d 42bf 61d1 32be
00000010: 8e10 abbd 2959 343e 539b 88be a4f7 8c3f
00000020: 2a50 893f fcf0 f43e 8c2b 203f 67f8 943e
00000030: 94fb 9bbe 759f 063f aff7 9fbf 6487 d0be
00000040: f13b 1f3e 5c78 06bc a696 ac3e 1aab a3bf
00000050: 9896 ec3f 4b30 23c0 e939 d33e 1f84 183e
00000060: aba9 033f 39dc 05bd b155 46be 9446 b23e
00000070: 46a5 293e d1c6 443e f9e7 803f 31a8 88be
00000080: 6359 f6bd 52fd 2f3f c56f 0cbf 5664 11bf
00000090: e88b e73e e582 b6bc 53a8 9b3e 11fc 553f
000000a0: a4b6 193e f7fc 8d3d 54b5 7c3d b7eb 0d3f
000000b0: 313f 173f 0007 9e3f de44 7cbc 1dff eb3c
000000c0: 12ed debe 4549 e83e 46d0 adbf 75a2 19bf
000000d0: a406 55bf 8c41 c4ba 3816 3c3d db07 593f
000000e0: 6021 69be 615f abbe 7e74 433e 1061 b5be
000000f0: 1326 1f3f d45c 013f c0b1 933e b674 56be
00000100: 09aa afbe febc 87bf 32f4 273f 983f 25be
00000110: d10a 933e 30bc 2d3f c7f4 1d3f 33b4 f4be
00000120: d7ed cd3e 4ff6 7a3e c1d0 833e f50d 6dbe
00000130: 8630 113f 0c8e 99bf ebb8 ac3f 3b1b 153f
00000140: 3a80 f83e ad68 29bf c9c3 103d f2c3 ed3e
00000150: fb4a 2cbe ac2b e9be ebfe 7b3f d13a 31bf
00000160: 9b63 353f 46e4 40be f650 c63e d941 0fbc
00000170: 678a ac3c d661 503f 72d6 093f e83a c53f
00000180: 673d 79bf 4a72 a9bd a1c8 a6bf bb9f 3d3f
00000190: cf5c 05be d714 bbbe fda8 7abe 93b1 88bf
000001a0: 560b e4be 13fa b0be 5b6c cabe bf5d 9e3d
000001b0: 6d74 ccbe 7768 623e 8a86 ed3c f645 bebc
000001c0: 7a48 e73d d602 af3e f859 62bf a59f aabe
000001d0: 3067 0dbe 68a4 9abe 7039 4a3b 89db d3be
000001e0: c378 cd3e 1968 c1be 4680 f33e d878 bd3e
000001f0: ac7d 97bf 6aae 25be a688 2d3e 27fd 543d
00000200: c86a c33e 4c9d 2f3d f2bd 353e e2e7 c2bd
00000210: 5ece 953e d56a 69bd 7724 f2be e3a6 d6be
00000220: a679 a93e 2ff8 8bbe a69e f83e d0e8 3d3a
00000230: b95f f33e a1bf ef3e 1ebd d23e 0341 c1bd
00000240: 89a6 7a3e dd82 873e 6cb9 f4be 6d52 9d3e
00000250: e99a 68be 1b9c d13d 983f 81bf 98ca 88bf
00000260: a130 76bf 31ab 10bf 00f1 83bd 9884 27bd
00000270: ae13 2c3e a7fb 01bf e199 863e 492e f73e
00000280: f111 933f 2127 ee3e e4d0 ddbe 9273 ce3d
00000290: 3e93 f1be 3dc1 b2be 46ab 8d3e 91f2 15bf
000002a0: 94d0 a3bf 5c65 a83f 912d 3a3f f2ce 46bf
000002b0: 9940 373e ceb7 6ebd 7e9a a13e d4b7 183f
000002c0: 5888 01bf cd6e 9ebf 3fe1 8b3f 68ae 2a3f
000002d0: b1c4 8a3f 6cf6 29bf 7b3f 06bf c9a2 313f
000002e0: 8523 08bf 0fd7 56bf fc08 8f3e 0550 bd3e
000002f0: 6d60 733f 0638 e23e d5c8 873b d9f2 9a3f
00000300: 5257 893e 0ee1 613f 5f41 aa3e 1bcb 633f
00000310: 4913 923e 3a49 13bf 449f a33f 407b 323f
00000320: 2964 193f 8e5d 653f ed97 cc3e f073 ab3e
00000330: da5e 153f 3c41 a6bd 55f3 983e 3255 04be
00000340: f85d 41bf 3210 893e a46a 65bf fe18 91be
00000350: f7d8 c0bd f1d5 533e cdaf a13e 80f6 da3e
00000360: 615a 98be 2db9 453f 4990 1e40 81be 00be
00000370: 5480 4fbe d7c0 d53e db85 e1bd 355a f8be
00000380: a1e5 c5bc b666 fcbe 3096 9c3e 42fd 66bd
00000390: 9d1d 08bf 88a3 d13e 93ce 20bf 1809 703f
000003a0: 4f38 fe3d e4dc b5be e989 a43e bd79 0e3f
000003b0: 7bfa 97be a120 3e3e 9e4b 46bf eb16 32bf
000003c0: 541d bdbe 9659 fabe 6b6a 0f3e 835e 18be
000003d0: c847 41be 2b87 c73c b657 b13b d10c afbf
000003e0: d260 edbe 8644 56bf 5d2e 51be 4950 183f
000003f0: 05d4 0a3f d34e 2b3f 2c45 0e3f 7e0d d73d
-0.7428005 -0.7991789 -0.7592455 -0.17462684 -0.08352767 0.17612137 -0.26681003 1.1013074
1.0727589 0.47840106 0.6256645 0.29095766 -0.30465376 0.5258706 -1.2497462 -0.40728295
0.1555021 -0.008207407 0.33708686 -1.2786591 1.8483458 -2.5498226 0.4125512 0.1489415
0.5143077 -0.032680724 -0.19368626 0.34819472 0.16566953 0.19216467 1.0070792 -0.2669082
-0.12028768 0.6874591 -0.54858047 -0.56793725 0.45223927 -0.022279212 0.3040186 0.8358775
0.15011078 0.06933015 0.061696365 0.554378 0.590808 1.2345886 -0.015397279 0.02880817
-0.43540245 0.453684 -1.3579185 -0.60013515 -0.8321326 -0.0014973148 0.045919627 0.8477761
-0.22766638 -0.33471206 0.19087407 -0.35425615 0.6216747 0.5053227 0.2884655 -0.20942959
-0.34309414 -1.0604551 0.6560699 -0.1613754 0.2871919 0.67865276 0.61701626 -0.4779373
0.4022052 0.24508022 0.25745204 -0.23149855 0.56714666 -1.1996474 1.3493932 0.58244675
0.4853533 -0.6617535 0.035342965 0.46438557 -0.16825478 -0.45541131 0.9843585 -0.6923037
0.7085511 -0.1883708 0.38733643 -0.008743727 0.02106209 0.81399286 0.5384284 1.5408602
-0.9735932 -0.08273752 -1.3029977 0.74071854 -0.13023685 -0.36539337 -0.24478526 -1.0679191
-0.445399 -0.3456579 -0.39535794 0.077327244 -0.39932576 0.22110163 0.028994817 -0.02322672
0.11293121 0.3418185 -0.8841853 -0.33324924 -0.13808894 -0.30203557 0.003085699 -0.4137843
0.40131196 -0.37774733 0.47558802 0.3700626 -1.1835227 -0.16179815 0.16946658 0.051999237
0.38167405 0.04287462 0.1774824 -0.095168844 0.29259008 -0.05698665 -0.47293445 -0.419242
0.33100623 -0.27337787 0.4855854 0.00072444696 0.47533968 0.4682589 0.4115991 -0.09436228
0.2447759 0.26467028 -0.47797716 0.30726948 -0.22715344 0.10234853 -1.0097532 -1.0686827
-0.9616795 -0.5651122 -0.064424515 -0.040897936 0.16804382 -0.50774616 0.26289275 0.482775
1.148985 0.46514228 -0.43323433 0.10080637 -0.4718265 -0.34913054 0.27669734 -0.5857325
-1.2798028 1.3155932 0.7272578 -0.77659523 0.17895736 -0.05828076 0.3156318 0.596555
-0.5059867 -1.2377564 1.0928115 0.6667237 1.0841275 -0.66391635 -0.52440614 0.69389015
-0.531792 -0.83921903 0.27936542 0.36975113 0.9506901 0.44183367 0.004143814 1.2105361
0.26824433 0.8823403 0.33253 0.8898179 0.28530338 -0.5753361 1.2782979 0.69719315
0.5991846 0.8959588 0.3995966 0.3348689 0.58347857 -0.08117911 0.29873148 -0.12923124
-0.7553401 0.2677017 -0.89615846 -0.2833938 -0.09416383 0.20687081 0.31579438 0.4276619
-0.29756454 0.7723568 2.4775565 -0.12572671 -0.20263797 0.41748688 -0.11011859 -0.48506323
-0.024157347 -0.49297112 0.30583334 -0.05639387 -0.53170186 0.40945077 -0.6281521 0.93763876
0.12413084 -0.3552009 0.32136467 0.5565451 -0.2968329 0.18567134 -0.7745913 -0.6956622
-0.36936438 -0.48896474 0.14005439 -0.14879803 -0.18875039 0.024356445 0.0054120673 -1.3675786
-0.4636293 -0.8369831 -0.20427842 0.59497505 0.54229766 0.6691715 0.555743 0.1050062

layer.6.bias f4 [50]
00000000: e9a7 443f 2dc9 453f 5b2e e23e 9c53 973f
00000010: ea6f 2bbf a4c4 f2be 5fbc 2240 bbbf 60bf
00000020: c14c 3dc0 8c21 a03f 7b9a a23e 76ae fdbe
00000030: 57ff bcbe e32a 563f fe54 6fbd 9612 eebe
00000040: 619b 3a40 dd69 26c0 1cb4 ffbe 39bb 873e
00000050: b3b7 26bf f6a0 3e3f a700 2940 027b 36c0
00000060: c4a0 ee3e cc43 4d3f 1e80 d13f cd07 3f40
00000070: 394d 3d3f fea5 3fc0 b26b 64be fd5b bdbe
00000080: f078 5a3f b792 7c3f d13b 9d3f 3a3a 6f3f
00000090: dec3 f73e 7ebe 6bbf f43f 3f3f 7353 04c0
000000a0: 9b61 b23f 90bf 2440 c962 5d3f 0ce6 1dc0
000000b0: c2ce 71be a8e8 0540 238e c83e 2669 ad3f
000000c0: a166 2440 d8e1 9f3f
0.7681871 0.77260095 0.4417599 1.182239 -0.6696764 -0.4741565 2.5427473 -0.8779256
-2.9578097 1.2510238 0.31758484 -0.49547166 -0.3691356 0.8365919 -0.058430664 -0.46498555
2.9157336 -2.6002114 -0.499421 0.26510027 -0.6512405 0.74464357 2.6406648 -2.8512578
0.4660703 0.80181575 1.6367223 2.9848511 0.7394596 -2.9945064 -0.22306708 -0.36984244
0.85340786 0.9866137 1.228388 0.9344822 0.48391622 -0.92087543 0.7470696 -2.0675933
1.3936037 2.574192 0.8647886 -2.467166 -0.23614028 2.0923252 0.39170942 1.3547714
2.568764 1.2490797

layer.8.weight f4 [1, 50]
00000000: 397c 71be fa09 9dbe aec8 473f e9be babe
00000010: a6a3 863e 0e84 02bf d8ed 91be 74d0 9c3e
00000020: a043 a53e 3520 b2be 5e2c c63e d6ca 943e
00000030: 8ce7 8bbe e9d0 55be 1e92 d53e e130 7e3e
00000040: a0e0 82be 37d4 3e3e 2911 aa3d f058 5c3f
00000050: ba38 ac3e 7fa9 a83e 44ef 91be 25f7 893e
00000060: 5d56 453f 695e 68be e065 03bf 9ee4 42be
00000070: 4a41 9c3e 3c02 853e d42e b8bf a1a7 523d
00000080: 03de bdbe 3a27 0a3d f1ca a8be 4f8b 8ebe
00000090: 2eca c73e a0db e43e 9493 0d3f 6133 873e
000000a0: 4389 92be 2f58 183f c36c e6be 11ac 0fbf
000000b0: 4db9 04bf f91f 27bd 3c26 053f b72a b6be
000000c0: 4509 80be fa2b 00bf
-0.23582543 -0.30671674 0.7804059 -0.36473778 0.2629673 -0.5098275 -0.28501773 0.30627787
0.32278156 -0.34790197 0.38705724 0.29061002 -0.27325094 -0.20880474 0.4171304 0.24823333
-0.25562 0.18635641 0.08304054 0.8607321 0.3363703 0.32941815 -0.28502858 0.2694637
0.77084905 -0.22692265 -0.51327324 -0.19032523 0.30518562 0.25978267 -1.4389291 0.051429395
-0.37083444 0.033728816 -0.32967332 -0.2784066 0.39021438 0.4469881 0.5530331 0.26406386
-0.28620347 0.5950956 -0.45004854 -0.5612193 -0.51845247 -0.040801976 0.52011466 -0.35579464
-0.25007072 -0.500671
